<?xml version="1.0" ?>
<net name="torch-jit-export" version="11">
	<layers>
		<layer id="0" name="image" type="Parameter" version="opset1">
			<data shape="1,3,416,416" element_type="f32"/>
			<rt_info>
				<attribute name="fused_names" version="0" value="image"/>
			</rt_info>
			<output>
				<port id="0" precision="FP32" names="image">
					<dim>1</dim>
					<dim>3</dim>
					<dim>416</dim>
					<dim>416</dim>
					<rt_info>
						<attribute name="layout" version="0" layout="[N,C,H,W]"/>
					</rt_info>
				</port>
			</output>
		</layer>
		<layer id="1" name="Constant_7382" type="Const" version="opset1">
			<data element_type="f32" shape="" offset="0" size="4"/>
			<rt_info>
				<attribute name="fused_names" version="0" value="Constant_7382"/>
			</rt_info>
			<output>
				<port id="0" precision="FP32"/>
			</output>
		</layer>
		<layer id="2" name="Constant_71905" type="Const" version="opset1">
			<data element_type="f32" shape="1, 1, 1, 1" offset="4" size="4"/>
			<output>
				<port id="0" precision="FP32">
					<dim>1</dim>
					<dim>1</dim>
					<dim>1</dim>
					<dim>1</dim>
				</port>
			</output>
		</layer>
		<layer id="3" name="Divide_10600" type="Multiply" version="opset1">
			<data auto_broadcast="numpy"/>
			<rt_info>
				<attribute name="fused_names" version="0" value="Constant_10599, Divide_10600"/>
				<attribute name="preprocessing" version="0"/>
			</rt_info>
			<input>
				<port id="0" precision="FP32">
					<dim>1</dim>
					<dim>3</dim>
					<dim>416</dim>
					<dim>416</dim>
				</port>
				<port id="1" precision="FP32">
					<dim>1</dim>
					<dim>1</dim>
					<dim>1</dim>
					<dim>1</dim>
				</port>
			</input>
			<output>
				<port id="2" precision="FP32">
					<dim>1</dim>
					<dim>3</dim>
					<dim>416</dim>
					<dim>416</dim>
				</port>
			</output>
		</layer>
		<layer id="4" name="Gather_71904" type="Const" version="opset1">
			<data element_type="f32" shape="32, 3, 3, 3" offset="8" size="3456"/>
			<output>
				<port id="0" precision="FP32">
					<dim>32</dim>
					<dim>3</dim>
					<dim>3</dim>
					<dim>3</dim>
				</port>
			</output>
		</layer>
		<layer id="5" name="Multiply_67974" type="Convolution" version="opset1">
			<data strides="2, 2" dilations="1, 1" pads_begin="1, 1" pads_end="1, 1" auto_pad="explicit"/>
			<rt_info>
				<attribute name="fused_names" version="0" value="370, 371, backbone.features.init_block.bn.bias, backbone.features.init_block.bn.running_mean, backbone.features.init_block.bn.running_var, backbone.features.init_block.bn.weight"/>
			</rt_info>
			<input>
				<port id="0" precision="FP32">
					<dim>1</dim>
					<dim>3</dim>
					<dim>416</dim>
					<dim>416</dim>
				</port>
				<port id="1" precision="FP32">
					<dim>32</dim>
					<dim>3</dim>
					<dim>3</dim>
					<dim>3</dim>
				</port>
			</input>
			<output>
				<port id="2" precision="FP32">
					<dim>1</dim>
					<dim>32</dim>
					<dim>208</dim>
					<dim>208</dim>
				</port>
			</output>
		</layer>
		<layer id="6" name="Constant_67979" type="Const" version="opset1">
			<data element_type="f32" shape="1, 32, 1, 1" offset="3464" size="128"/>
			<output>
				<port id="0" precision="FP32">
					<dim>1</dim>
					<dim>32</dim>
					<dim>1</dim>
					<dim>1</dim>
				</port>
			</output>
		</layer>
		<layer id="7" name="371" type="Add" version="opset1">
			<data auto_broadcast="numpy"/>
			<rt_info>
				<attribute name="fused_names" version="0" value="371, backbone.features.init_block.bn.bias, backbone.features.init_block.bn.running_mean, backbone.features.init_block.bn.running_var, backbone.features.init_block.bn.weight"/>
			</rt_info>
			<input>
				<port id="0" precision="FP32">
					<dim>1</dim>
					<dim>32</dim>
					<dim>208</dim>
					<dim>208</dim>
				</port>
				<port id="1" precision="FP32">
					<dim>1</dim>
					<dim>32</dim>
					<dim>1</dim>
					<dim>1</dim>
				</port>
			</input>
			<output>
				<port id="2" precision="FP32" names="371">
					<dim>1</dim>
					<dim>32</dim>
					<dim>208</dim>
					<dim>208</dim>
				</port>
			</output>
		</layer>
		<layer id="8" name="372" type="Clamp" version="opset1">
			<data min="0" max="6"/>
			<rt_info>
				<attribute name="fused_names" version="0" value="372"/>
			</rt_info>
			<input>
				<port id="0" precision="FP32">
					<dim>1</dim>
					<dim>32</dim>
					<dim>208</dim>
					<dim>208</dim>
				</port>
			</input>
			<output>
				<port id="1" precision="FP32" names="372">
					<dim>1</dim>
					<dim>32</dim>
					<dim>208</dim>
					<dim>208</dim>
				</port>
			</output>
		</layer>
		<layer id="9" name="Multiply_68374" type="Const" version="opset1">
			<data element_type="f32" shape="32, 32, 1, 1" offset="3592" size="4096"/>
			<output>
				<port id="0" precision="FP32">
					<dim>32</dim>
					<dim>32</dim>
					<dim>1</dim>
					<dim>1</dim>
				</port>
			</output>
		</layer>
		<layer id="10" name="Multiply_67981" type="Convolution" version="opset1">
			<data strides="1, 1" dilations="1, 1" pads_begin="0, 0" pads_end="0, 0" auto_pad="explicit"/>
			<rt_info>
				<attribute name="fused_names" version="0" value="373, 374, backbone.features.stage1.unit1.conv1.bn.bias, backbone.features.stage1.unit1.conv1.bn.running_mean, backbone.features.stage1.unit1.conv1.bn.running_var, backbone.features.stage1.unit1.conv1.bn.weight"/>
			</rt_info>
			<input>
				<port id="0" precision="FP32">
					<dim>1</dim>
					<dim>32</dim>
					<dim>208</dim>
					<dim>208</dim>
				</port>
				<port id="1" precision="FP32">
					<dim>32</dim>
					<dim>32</dim>
					<dim>1</dim>
					<dim>1</dim>
				</port>
			</input>
			<output>
				<port id="2" precision="FP32">
					<dim>1</dim>
					<dim>32</dim>
					<dim>208</dim>
					<dim>208</dim>
				</port>
			</output>
		</layer>
		<layer id="11" name="Constant_67986" type="Const" version="opset1">
			<data element_type="f32" shape="1, 32, 1, 1" offset="7688" size="128"/>
			<output>
				<port id="0" precision="FP32">
					<dim>1</dim>
					<dim>32</dim>
					<dim>1</dim>
					<dim>1</dim>
				</port>
			</output>
		</layer>
		<layer id="12" name="374" type="Add" version="opset1">
			<data auto_broadcast="numpy"/>
			<rt_info>
				<attribute name="fused_names" version="0" value="374, backbone.features.stage1.unit1.conv1.bn.bias, backbone.features.stage1.unit1.conv1.bn.running_mean, backbone.features.stage1.unit1.conv1.bn.running_var, backbone.features.stage1.unit1.conv1.bn.weight"/>
			</rt_info>
			<input>
				<port id="0" precision="FP32">
					<dim>1</dim>
					<dim>32</dim>
					<dim>208</dim>
					<dim>208</dim>
				</port>
				<port id="1" precision="FP32">
					<dim>1</dim>
					<dim>32</dim>
					<dim>1</dim>
					<dim>1</dim>
				</port>
			</input>
			<output>
				<port id="2" precision="FP32" names="374">
					<dim>1</dim>
					<dim>32</dim>
					<dim>208</dim>
					<dim>208</dim>
				</port>
			</output>
		</layer>
		<layer id="13" name="375" type="Clamp" version="opset1">
			<data min="0" max="6"/>
			<rt_info>
				<attribute name="fused_names" version="0" value="375"/>
			</rt_info>
			<input>
				<port id="0" precision="FP32">
					<dim>1</dim>
					<dim>32</dim>
					<dim>208</dim>
					<dim>208</dim>
				</port>
			</input>
			<output>
				<port id="1" precision="FP32" names="375">
					<dim>1</dim>
					<dim>32</dim>
					<dim>208</dim>
					<dim>208</dim>
				</port>
			</output>
		</layer>
		<layer id="14" name="Multiply_68383" type="Const" version="opset1">
			<data element_type="f32" shape="32, 1, 1, 3, 3" offset="7816" size="1152"/>
			<output>
				<port id="0" precision="FP32">
					<dim>32</dim>
					<dim>1</dim>
					<dim>1</dim>
					<dim>3</dim>
					<dim>3</dim>
				</port>
			</output>
		</layer>
		<layer id="15" name="Multiply_67988" type="GroupConvolution" version="opset1">
			<data strides="1, 1" pads_begin="1, 1" pads_end="1, 1" dilations="1, 1" auto_pad="explicit"/>
			<rt_info>
				<attribute name="fused_names" version="0" value="377, backbone.features.stage1.unit1.conv2.bn.bias, backbone.features.stage1.unit1.conv2.bn.running_mean, backbone.features.stage1.unit1.conv2.bn.running_var, backbone.features.stage1.unit1.conv2.bn.weight"/>
			</rt_info>
			<input>
				<port id="0" precision="FP32">
					<dim>1</dim>
					<dim>32</dim>
					<dim>208</dim>
					<dim>208</dim>
				</port>
				<port id="1" precision="FP32">
					<dim>32</dim>
					<dim>1</dim>
					<dim>1</dim>
					<dim>3</dim>
					<dim>3</dim>
				</port>
			</input>
			<output>
				<port id="2" precision="FP32" names="376">
					<dim>1</dim>
					<dim>32</dim>
					<dim>208</dim>
					<dim>208</dim>
				</port>
			</output>
		</layer>
		<layer id="16" name="Constant_67993" type="Const" version="opset1">
			<data element_type="f32" shape="1, 32, 1, 1" offset="8968" size="128"/>
			<output>
				<port id="0" precision="FP32">
					<dim>1</dim>
					<dim>32</dim>
					<dim>1</dim>
					<dim>1</dim>
				</port>
			</output>
		</layer>
		<layer id="17" name="377" type="Add" version="opset1">
			<data auto_broadcast="numpy"/>
			<rt_info>
				<attribute name="fused_names" version="0" value="377, backbone.features.stage1.unit1.conv2.bn.bias, backbone.features.stage1.unit1.conv2.bn.running_mean, backbone.features.stage1.unit1.conv2.bn.running_var, backbone.features.stage1.unit1.conv2.bn.weight"/>
			</rt_info>
			<input>
				<port id="0" precision="FP32">
					<dim>1</dim>
					<dim>32</dim>
					<dim>208</dim>
					<dim>208</dim>
				</port>
				<port id="1" precision="FP32">
					<dim>1</dim>
					<dim>32</dim>
					<dim>1</dim>
					<dim>1</dim>
				</port>
			</input>
			<output>
				<port id="2" precision="FP32" names="377">
					<dim>1</dim>
					<dim>32</dim>
					<dim>208</dim>
					<dim>208</dim>
				</port>
			</output>
		</layer>
		<layer id="18" name="378" type="Clamp" version="opset1">
			<data min="0" max="6"/>
			<rt_info>
				<attribute name="fused_names" version="0" value="378"/>
			</rt_info>
			<input>
				<port id="0" precision="FP32">
					<dim>1</dim>
					<dim>32</dim>
					<dim>208</dim>
					<dim>208</dim>
				</port>
			</input>
			<output>
				<port id="1" precision="FP32" names="378">
					<dim>1</dim>
					<dim>32</dim>
					<dim>208</dim>
					<dim>208</dim>
				</port>
			</output>
		</layer>
		<layer id="19" name="Multiply_68391" type="Const" version="opset1">
			<data element_type="f32" shape="16, 32, 1, 1" offset="9096" size="2048"/>
			<output>
				<port id="0" precision="FP32">
					<dim>16</dim>
					<dim>32</dim>
					<dim>1</dim>
					<dim>1</dim>
				</port>
			</output>
		</layer>
		<layer id="20" name="Multiply_67995" type="Convolution" version="opset1">
			<data strides="1, 1" dilations="1, 1" pads_begin="0, 0" pads_end="0, 0" auto_pad="explicit"/>
			<rt_info>
				<attribute name="fused_names" version="0" value="379, 380, backbone.features.stage1.unit1.conv3.bn.bias, backbone.features.stage1.unit1.conv3.bn.running_mean, backbone.features.stage1.unit1.conv3.bn.running_var, backbone.features.stage1.unit1.conv3.bn.weight"/>
			</rt_info>
			<input>
				<port id="0" precision="FP32">
					<dim>1</dim>
					<dim>32</dim>
					<dim>208</dim>
					<dim>208</dim>
				</port>
				<port id="1" precision="FP32">
					<dim>16</dim>
					<dim>32</dim>
					<dim>1</dim>
					<dim>1</dim>
				</port>
			</input>
			<output>
				<port id="2" precision="FP32">
					<dim>1</dim>
					<dim>16</dim>
					<dim>208</dim>
					<dim>208</dim>
				</port>
			</output>
		</layer>
		<layer id="21" name="Constant_68000" type="Const" version="opset1">
			<data element_type="f32" shape="1, 16, 1, 1" offset="11144" size="64"/>
			<output>
				<port id="0" precision="FP32">
					<dim>1</dim>
					<dim>16</dim>
					<dim>1</dim>
					<dim>1</dim>
				</port>
			</output>
		</layer>
		<layer id="22" name="380" type="Add" version="opset1">
			<data auto_broadcast="numpy"/>
			<rt_info>
				<attribute name="fused_names" version="0" value="380, backbone.features.stage1.unit1.conv3.bn.bias, backbone.features.stage1.unit1.conv3.bn.running_mean, backbone.features.stage1.unit1.conv3.bn.running_var, backbone.features.stage1.unit1.conv3.bn.weight"/>
			</rt_info>
			<input>
				<port id="0" precision="FP32">
					<dim>1</dim>
					<dim>16</dim>
					<dim>208</dim>
					<dim>208</dim>
				</port>
				<port id="1" precision="FP32">
					<dim>1</dim>
					<dim>16</dim>
					<dim>1</dim>
					<dim>1</dim>
				</port>
			</input>
			<output>
				<port id="2" precision="FP32" names="380">
					<dim>1</dim>
					<dim>16</dim>
					<dim>208</dim>
					<dim>208</dim>
				</port>
			</output>
		</layer>
		<layer id="23" name="Multiply_68400" type="Const" version="opset1">
			<data element_type="f32" shape="96, 16, 1, 1" offset="11208" size="6144"/>
			<output>
				<port id="0" precision="FP32">
					<dim>96</dim>
					<dim>16</dim>
					<dim>1</dim>
					<dim>1</dim>
				</port>
			</output>
		</layer>
		<layer id="24" name="Multiply_68002" type="Convolution" version="opset1">
			<data strides="1, 1" dilations="1, 1" pads_begin="0, 0" pads_end="0, 0" auto_pad="explicit"/>
			<rt_info>
				<attribute name="fused_names" version="0" value="381, 382, backbone.features.stage2.unit1.conv1.bn.bias, backbone.features.stage2.unit1.conv1.bn.running_mean, backbone.features.stage2.unit1.conv1.bn.running_var, backbone.features.stage2.unit1.conv1.bn.weight"/>
			</rt_info>
			<input>
				<port id="0" precision="FP32">
					<dim>1</dim>
					<dim>16</dim>
					<dim>208</dim>
					<dim>208</dim>
				</port>
				<port id="1" precision="FP32">
					<dim>96</dim>
					<dim>16</dim>
					<dim>1</dim>
					<dim>1</dim>
				</port>
			</input>
			<output>
				<port id="2" precision="FP32">
					<dim>1</dim>
					<dim>96</dim>
					<dim>208</dim>
					<dim>208</dim>
				</port>
			</output>
		</layer>
		<layer id="25" name="Constant_68007" type="Const" version="opset1">
			<data element_type="f32" shape="1, 96, 1, 1" offset="17352" size="384"/>
			<output>
				<port id="0" precision="FP32">
					<dim>1</dim>
					<dim>96</dim>
					<dim>1</dim>
					<dim>1</dim>
				</port>
			</output>
		</layer>
		<layer id="26" name="382" type="Add" version="opset1">
			<data auto_broadcast="numpy"/>
			<rt_info>
				<attribute name="fused_names" version="0" value="382, backbone.features.stage2.unit1.conv1.bn.bias, backbone.features.stage2.unit1.conv1.bn.running_mean, backbone.features.stage2.unit1.conv1.bn.running_var, backbone.features.stage2.unit1.conv1.bn.weight"/>
			</rt_info>
			<input>
				<port id="0" precision="FP32">
					<dim>1</dim>
					<dim>96</dim>
					<dim>208</dim>
					<dim>208</dim>
				</port>
				<port id="1" precision="FP32">
					<dim>1</dim>
					<dim>96</dim>
					<dim>1</dim>
					<dim>1</dim>
				</port>
			</input>
			<output>
				<port id="2" precision="FP32" names="382">
					<dim>1</dim>
					<dim>96</dim>
					<dim>208</dim>
					<dim>208</dim>
				</port>
			</output>
		</layer>
		<layer id="27" name="383" type="Clamp" version="opset1">
			<data min="0" max="6"/>
			<rt_info>
				<attribute name="fused_names" version="0" value="383"/>
			</rt_info>
			<input>
				<port id="0" precision="FP32">
					<dim>1</dim>
					<dim>96</dim>
					<dim>208</dim>
					<dim>208</dim>
				</port>
			</input>
			<output>
				<port id="1" precision="FP32" names="383">
					<dim>1</dim>
					<dim>96</dim>
					<dim>208</dim>
					<dim>208</dim>
				</port>
			</output>
		</layer>
		<layer id="28" name="Multiply_68409" type="Const" version="opset1">
			<data element_type="f32" shape="96, 1, 1, 3, 3" offset="17736" size="3456"/>
			<output>
				<port id="0" precision="FP32">
					<dim>96</dim>
					<dim>1</dim>
					<dim>1</dim>
					<dim>3</dim>
					<dim>3</dim>
				</port>
			</output>
		</layer>
		<layer id="29" name="Multiply_68009" type="GroupConvolution" version="opset1">
			<data strides="2, 2" pads_begin="1, 1" pads_end="1, 1" dilations="1, 1" auto_pad="explicit"/>
			<rt_info>
				<attribute name="fused_names" version="0" value="385, backbone.features.stage2.unit1.conv2.bn.bias, backbone.features.stage2.unit1.conv2.bn.running_mean, backbone.features.stage2.unit1.conv2.bn.running_var, backbone.features.stage2.unit1.conv2.bn.weight"/>
			</rt_info>
			<input>
				<port id="0" precision="FP32">
					<dim>1</dim>
					<dim>96</dim>
					<dim>208</dim>
					<dim>208</dim>
				</port>
				<port id="1" precision="FP32">
					<dim>96</dim>
					<dim>1</dim>
					<dim>1</dim>
					<dim>3</dim>
					<dim>3</dim>
				</port>
			</input>
			<output>
				<port id="2" precision="FP32" names="384">
					<dim>1</dim>
					<dim>96</dim>
					<dim>104</dim>
					<dim>104</dim>
				</port>
			</output>
		</layer>
		<layer id="30" name="Constant_68014" type="Const" version="opset1">
			<data element_type="f32" shape="1, 96, 1, 1" offset="21192" size="384"/>
			<output>
				<port id="0" precision="FP32">
					<dim>1</dim>
					<dim>96</dim>
					<dim>1</dim>
					<dim>1</dim>
				</port>
			</output>
		</layer>
		<layer id="31" name="385" type="Add" version="opset1">
			<data auto_broadcast="numpy"/>
			<rt_info>
				<attribute name="fused_names" version="0" value="385, backbone.features.stage2.unit1.conv2.bn.bias, backbone.features.stage2.unit1.conv2.bn.running_mean, backbone.features.stage2.unit1.conv2.bn.running_var, backbone.features.stage2.unit1.conv2.bn.weight"/>
			</rt_info>
			<input>
				<port id="0" precision="FP32">
					<dim>1</dim>
					<dim>96</dim>
					<dim>104</dim>
					<dim>104</dim>
				</port>
				<port id="1" precision="FP32">
					<dim>1</dim>
					<dim>96</dim>
					<dim>1</dim>
					<dim>1</dim>
				</port>
			</input>
			<output>
				<port id="2" precision="FP32" names="385">
					<dim>1</dim>
					<dim>96</dim>
					<dim>104</dim>
					<dim>104</dim>
				</port>
			</output>
		</layer>
		<layer id="32" name="386" type="Clamp" version="opset1">
			<data min="0" max="6"/>
			<rt_info>
				<attribute name="fused_names" version="0" value="386"/>
			</rt_info>
			<input>
				<port id="0" precision="FP32">
					<dim>1</dim>
					<dim>96</dim>
					<dim>104</dim>
					<dim>104</dim>
				</port>
			</input>
			<output>
				<port id="1" precision="FP32" names="386">
					<dim>1</dim>
					<dim>96</dim>
					<dim>104</dim>
					<dim>104</dim>
				</port>
			</output>
		</layer>
		<layer id="33" name="Multiply_68417" type="Const" version="opset1">
			<data element_type="f32" shape="24, 96, 1, 1" offset="21576" size="9216"/>
			<output>
				<port id="0" precision="FP32">
					<dim>24</dim>
					<dim>96</dim>
					<dim>1</dim>
					<dim>1</dim>
				</port>
			</output>
		</layer>
		<layer id="34" name="Multiply_68016" type="Convolution" version="opset1">
			<data strides="1, 1" dilations="1, 1" pads_begin="0, 0" pads_end="0, 0" auto_pad="explicit"/>
			<rt_info>
				<attribute name="fused_names" version="0" value="387, 388, backbone.features.stage2.unit1.conv3.bn.bias, backbone.features.stage2.unit1.conv3.bn.running_mean, backbone.features.stage2.unit1.conv3.bn.running_var, backbone.features.stage2.unit1.conv3.bn.weight"/>
			</rt_info>
			<input>
				<port id="0" precision="FP32">
					<dim>1</dim>
					<dim>96</dim>
					<dim>104</dim>
					<dim>104</dim>
				</port>
				<port id="1" precision="FP32">
					<dim>24</dim>
					<dim>96</dim>
					<dim>1</dim>
					<dim>1</dim>
				</port>
			</input>
			<output>
				<port id="2" precision="FP32">
					<dim>1</dim>
					<dim>24</dim>
					<dim>104</dim>
					<dim>104</dim>
				</port>
			</output>
		</layer>
		<layer id="35" name="Constant_68021" type="Const" version="opset1">
			<data element_type="f32" shape="1, 24, 1, 1" offset="30792" size="96"/>
			<output>
				<port id="0" precision="FP32">
					<dim>1</dim>
					<dim>24</dim>
					<dim>1</dim>
					<dim>1</dim>
				</port>
			</output>
		</layer>
		<layer id="36" name="388" type="Add" version="opset1">
			<data auto_broadcast="numpy"/>
			<rt_info>
				<attribute name="fused_names" version="0" value="388, backbone.features.stage2.unit1.conv3.bn.bias, backbone.features.stage2.unit1.conv3.bn.running_mean, backbone.features.stage2.unit1.conv3.bn.running_var, backbone.features.stage2.unit1.conv3.bn.weight"/>
			</rt_info>
			<input>
				<port id="0" precision="FP32">
					<dim>1</dim>
					<dim>24</dim>
					<dim>104</dim>
					<dim>104</dim>
				</port>
				<port id="1" precision="FP32">
					<dim>1</dim>
					<dim>24</dim>
					<dim>1</dim>
					<dim>1</dim>
				</port>
			</input>
			<output>
				<port id="2" precision="FP32" names="388">
					<dim>1</dim>
					<dim>24</dim>
					<dim>104</dim>
					<dim>104</dim>
				</port>
			</output>
		</layer>
		<layer id="37" name="Multiply_68426" type="Const" version="opset1">
			<data element_type="f32" shape="144, 24, 1, 1" offset="30888" size="13824"/>
			<output>
				<port id="0" precision="FP32">
					<dim>144</dim>
					<dim>24</dim>
					<dim>1</dim>
					<dim>1</dim>
				</port>
			</output>
		</layer>
		<layer id="38" name="Multiply_68023" type="Convolution" version="opset1">
			<data strides="1, 1" dilations="1, 1" pads_begin="0, 0" pads_end="0, 0" auto_pad="explicit"/>
			<rt_info>
				<attribute name="fused_names" version="0" value="389, 390, backbone.features.stage2.unit2.conv1.bn.bias, backbone.features.stage2.unit2.conv1.bn.running_mean, backbone.features.stage2.unit2.conv1.bn.running_var, backbone.features.stage2.unit2.conv1.bn.weight"/>
			</rt_info>
			<input>
				<port id="0" precision="FP32">
					<dim>1</dim>
					<dim>24</dim>
					<dim>104</dim>
					<dim>104</dim>
				</port>
				<port id="1" precision="FP32">
					<dim>144</dim>
					<dim>24</dim>
					<dim>1</dim>
					<dim>1</dim>
				</port>
			</input>
			<output>
				<port id="2" precision="FP32">
					<dim>1</dim>
					<dim>144</dim>
					<dim>104</dim>
					<dim>104</dim>
				</port>
			</output>
		</layer>
		<layer id="39" name="Constant_68028" type="Const" version="opset1">
			<data element_type="f32" shape="1, 144, 1, 1" offset="44712" size="576"/>
			<output>
				<port id="0" precision="FP32">
					<dim>1</dim>
					<dim>144</dim>
					<dim>1</dim>
					<dim>1</dim>
				</port>
			</output>
		</layer>
		<layer id="40" name="390" type="Add" version="opset1">
			<data auto_broadcast="numpy"/>
			<rt_info>
				<attribute name="fused_names" version="0" value="390, backbone.features.stage2.unit2.conv1.bn.bias, backbone.features.stage2.unit2.conv1.bn.running_mean, backbone.features.stage2.unit2.conv1.bn.running_var, backbone.features.stage2.unit2.conv1.bn.weight"/>
			</rt_info>
			<input>
				<port id="0" precision="FP32">
					<dim>1</dim>
					<dim>144</dim>
					<dim>104</dim>
					<dim>104</dim>
				</port>
				<port id="1" precision="FP32">
					<dim>1</dim>
					<dim>144</dim>
					<dim>1</dim>
					<dim>1</dim>
				</port>
			</input>
			<output>
				<port id="2" precision="FP32" names="390">
					<dim>1</dim>
					<dim>144</dim>
					<dim>104</dim>
					<dim>104</dim>
				</port>
			</output>
		</layer>
		<layer id="41" name="391" type="Clamp" version="opset1">
			<data min="0" max="6"/>
			<rt_info>
				<attribute name="fused_names" version="0" value="391"/>
			</rt_info>
			<input>
				<port id="0" precision="FP32">
					<dim>1</dim>
					<dim>144</dim>
					<dim>104</dim>
					<dim>104</dim>
				</port>
			</input>
			<output>
				<port id="1" precision="FP32" names="391">
					<dim>1</dim>
					<dim>144</dim>
					<dim>104</dim>
					<dim>104</dim>
				</port>
			</output>
		</layer>
		<layer id="42" name="Multiply_68435" type="Const" version="opset1">
			<data element_type="f32" shape="144, 1, 1, 3, 3" offset="45288" size="5184"/>
			<output>
				<port id="0" precision="FP32">
					<dim>144</dim>
					<dim>1</dim>
					<dim>1</dim>
					<dim>3</dim>
					<dim>3</dim>
				</port>
			</output>
		</layer>
		<layer id="43" name="Multiply_68030" type="GroupConvolution" version="opset1">
			<data strides="1, 1" pads_begin="1, 1" pads_end="1, 1" dilations="1, 1" auto_pad="explicit"/>
			<rt_info>
				<attribute name="fused_names" version="0" value="393, backbone.features.stage2.unit2.conv2.bn.bias, backbone.features.stage2.unit2.conv2.bn.running_mean, backbone.features.stage2.unit2.conv2.bn.running_var, backbone.features.stage2.unit2.conv2.bn.weight"/>
			</rt_info>
			<input>
				<port id="0" precision="FP32">
					<dim>1</dim>
					<dim>144</dim>
					<dim>104</dim>
					<dim>104</dim>
				</port>
				<port id="1" precision="FP32">
					<dim>144</dim>
					<dim>1</dim>
					<dim>1</dim>
					<dim>3</dim>
					<dim>3</dim>
				</port>
			</input>
			<output>
				<port id="2" precision="FP32" names="392">
					<dim>1</dim>
					<dim>144</dim>
					<dim>104</dim>
					<dim>104</dim>
				</port>
			</output>
		</layer>
		<layer id="44" name="Constant_68035" type="Const" version="opset1">
			<data element_type="f32" shape="1, 144, 1, 1" offset="50472" size="576"/>
			<output>
				<port id="0" precision="FP32">
					<dim>1</dim>
					<dim>144</dim>
					<dim>1</dim>
					<dim>1</dim>
				</port>
			</output>
		</layer>
		<layer id="45" name="393" type="Add" version="opset1">
			<data auto_broadcast="numpy"/>
			<rt_info>
				<attribute name="fused_names" version="0" value="393, backbone.features.stage2.unit2.conv2.bn.bias, backbone.features.stage2.unit2.conv2.bn.running_mean, backbone.features.stage2.unit2.conv2.bn.running_var, backbone.features.stage2.unit2.conv2.bn.weight"/>
			</rt_info>
			<input>
				<port id="0" precision="FP32">
					<dim>1</dim>
					<dim>144</dim>
					<dim>104</dim>
					<dim>104</dim>
				</port>
				<port id="1" precision="FP32">
					<dim>1</dim>
					<dim>144</dim>
					<dim>1</dim>
					<dim>1</dim>
				</port>
			</input>
			<output>
				<port id="2" precision="FP32" names="393">
					<dim>1</dim>
					<dim>144</dim>
					<dim>104</dim>
					<dim>104</dim>
				</port>
			</output>
		</layer>
		<layer id="46" name="394" type="Clamp" version="opset1">
			<data min="0" max="6"/>
			<rt_info>
				<attribute name="fused_names" version="0" value="394"/>
			</rt_info>
			<input>
				<port id="0" precision="FP32">
					<dim>1</dim>
					<dim>144</dim>
					<dim>104</dim>
					<dim>104</dim>
				</port>
			</input>
			<output>
				<port id="1" precision="FP32" names="394">
					<dim>1</dim>
					<dim>144</dim>
					<dim>104</dim>
					<dim>104</dim>
				</port>
			</output>
		</layer>
		<layer id="47" name="Multiply_68443" type="Const" version="opset1">
			<data element_type="f32" shape="24, 144, 1, 1" offset="51048" size="13824"/>
			<output>
				<port id="0" precision="FP32">
					<dim>24</dim>
					<dim>144</dim>
					<dim>1</dim>
					<dim>1</dim>
				</port>
			</output>
		</layer>
		<layer id="48" name="Multiply_68037" type="Convolution" version="opset1">
			<data strides="1, 1" dilations="1, 1" pads_begin="0, 0" pads_end="0, 0" auto_pad="explicit"/>
			<rt_info>
				<attribute name="fused_names" version="0" value="395, 396, backbone.features.stage2.unit2.conv3.bn.bias, backbone.features.stage2.unit2.conv3.bn.running_mean, backbone.features.stage2.unit2.conv3.bn.running_var, backbone.features.stage2.unit2.conv3.bn.weight"/>
			</rt_info>
			<input>
				<port id="0" precision="FP32">
					<dim>1</dim>
					<dim>144</dim>
					<dim>104</dim>
					<dim>104</dim>
				</port>
				<port id="1" precision="FP32">
					<dim>24</dim>
					<dim>144</dim>
					<dim>1</dim>
					<dim>1</dim>
				</port>
			</input>
			<output>
				<port id="2" precision="FP32">
					<dim>1</dim>
					<dim>24</dim>
					<dim>104</dim>
					<dim>104</dim>
				</port>
			</output>
		</layer>
		<layer id="49" name="Constant_68042" type="Const" version="opset1">
			<data element_type="f32" shape="1, 24, 1, 1" offset="64872" size="96"/>
			<output>
				<port id="0" precision="FP32">
					<dim>1</dim>
					<dim>24</dim>
					<dim>1</dim>
					<dim>1</dim>
				</port>
			</output>
		</layer>
		<layer id="50" name="396" type="Add" version="opset1">
			<data auto_broadcast="numpy"/>
			<rt_info>
				<attribute name="fused_names" version="0" value="396, backbone.features.stage2.unit2.conv3.bn.bias, backbone.features.stage2.unit2.conv3.bn.running_mean, backbone.features.stage2.unit2.conv3.bn.running_var, backbone.features.stage2.unit2.conv3.bn.weight"/>
			</rt_info>
			<input>
				<port id="0" precision="FP32">
					<dim>1</dim>
					<dim>24</dim>
					<dim>104</dim>
					<dim>104</dim>
				</port>
				<port id="1" precision="FP32">
					<dim>1</dim>
					<dim>24</dim>
					<dim>1</dim>
					<dim>1</dim>
				</port>
			</input>
			<output>
				<port id="2" precision="FP32" names="396">
					<dim>1</dim>
					<dim>24</dim>
					<dim>104</dim>
					<dim>104</dim>
				</port>
			</output>
		</layer>
		<layer id="51" name="397" type="Add" version="opset1">
			<data auto_broadcast="numpy"/>
			<rt_info>
				<attribute name="fused_names" version="0" value="397"/>
			</rt_info>
			<input>
				<port id="0" precision="FP32">
					<dim>1</dim>
					<dim>24</dim>
					<dim>104</dim>
					<dim>104</dim>
				</port>
				<port id="1" precision="FP32">
					<dim>1</dim>
					<dim>24</dim>
					<dim>104</dim>
					<dim>104</dim>
				</port>
			</input>
			<output>
				<port id="2" precision="FP32" names="397">
					<dim>1</dim>
					<dim>24</dim>
					<dim>104</dim>
					<dim>104</dim>
				</port>
			</output>
		</layer>
		<layer id="52" name="Multiply_68452" type="Const" version="opset1">
			<data element_type="f32" shape="144, 24, 1, 1" offset="64968" size="13824"/>
			<output>
				<port id="0" precision="FP32">
					<dim>144</dim>
					<dim>24</dim>
					<dim>1</dim>
					<dim>1</dim>
				</port>
			</output>
		</layer>
		<layer id="53" name="Multiply_68044" type="Convolution" version="opset1">
			<data strides="1, 1" dilations="1, 1" pads_begin="0, 0" pads_end="0, 0" auto_pad="explicit"/>
			<rt_info>
				<attribute name="fused_names" version="0" value="398, 399, backbone.features.stage3.unit1.conv1.bn.bias, backbone.features.stage3.unit1.conv1.bn.running_mean, backbone.features.stage3.unit1.conv1.bn.running_var, backbone.features.stage3.unit1.conv1.bn.weight"/>
			</rt_info>
			<input>
				<port id="0" precision="FP32">
					<dim>1</dim>
					<dim>24</dim>
					<dim>104</dim>
					<dim>104</dim>
				</port>
				<port id="1" precision="FP32">
					<dim>144</dim>
					<dim>24</dim>
					<dim>1</dim>
					<dim>1</dim>
				</port>
			</input>
			<output>
				<port id="2" precision="FP32">
					<dim>1</dim>
					<dim>144</dim>
					<dim>104</dim>
					<dim>104</dim>
				</port>
			</output>
		</layer>
		<layer id="54" name="Constant_68049" type="Const" version="opset1">
			<data element_type="f32" shape="1, 144, 1, 1" offset="78792" size="576"/>
			<output>
				<port id="0" precision="FP32">
					<dim>1</dim>
					<dim>144</dim>
					<dim>1</dim>
					<dim>1</dim>
				</port>
			</output>
		</layer>
		<layer id="55" name="399" type="Add" version="opset1">
			<data auto_broadcast="numpy"/>
			<rt_info>
				<attribute name="fused_names" version="0" value="399, backbone.features.stage3.unit1.conv1.bn.bias, backbone.features.stage3.unit1.conv1.bn.running_mean, backbone.features.stage3.unit1.conv1.bn.running_var, backbone.features.stage3.unit1.conv1.bn.weight"/>
			</rt_info>
			<input>
				<port id="0" precision="FP32">
					<dim>1</dim>
					<dim>144</dim>
					<dim>104</dim>
					<dim>104</dim>
				</port>
				<port id="1" precision="FP32">
					<dim>1</dim>
					<dim>144</dim>
					<dim>1</dim>
					<dim>1</dim>
				</port>
			</input>
			<output>
				<port id="2" precision="FP32" names="399">
					<dim>1</dim>
					<dim>144</dim>
					<dim>104</dim>
					<dim>104</dim>
				</port>
			</output>
		</layer>
		<layer id="56" name="400" type="Clamp" version="opset1">
			<data min="0" max="6"/>
			<rt_info>
				<attribute name="fused_names" version="0" value="400"/>
			</rt_info>
			<input>
				<port id="0" precision="FP32">
					<dim>1</dim>
					<dim>144</dim>
					<dim>104</dim>
					<dim>104</dim>
				</port>
			</input>
			<output>
				<port id="1" precision="FP32" names="400">
					<dim>1</dim>
					<dim>144</dim>
					<dim>104</dim>
					<dim>104</dim>
				</port>
			</output>
		</layer>
		<layer id="57" name="Multiply_68461" type="Const" version="opset1">
			<data element_type="f32" shape="144, 1, 1, 3, 3" offset="79368" size="5184"/>
			<output>
				<port id="0" precision="FP32">
					<dim>144</dim>
					<dim>1</dim>
					<dim>1</dim>
					<dim>3</dim>
					<dim>3</dim>
				</port>
			</output>
		</layer>
		<layer id="58" name="Multiply_68051" type="GroupConvolution" version="opset1">
			<data strides="2, 2" pads_begin="1, 1" pads_end="1, 1" dilations="1, 1" auto_pad="explicit"/>
			<rt_info>
				<attribute name="fused_names" version="0" value="402, backbone.features.stage3.unit1.conv2.bn.bias, backbone.features.stage3.unit1.conv2.bn.running_mean, backbone.features.stage3.unit1.conv2.bn.running_var, backbone.features.stage3.unit1.conv2.bn.weight"/>
			</rt_info>
			<input>
				<port id="0" precision="FP32">
					<dim>1</dim>
					<dim>144</dim>
					<dim>104</dim>
					<dim>104</dim>
				</port>
				<port id="1" precision="FP32">
					<dim>144</dim>
					<dim>1</dim>
					<dim>1</dim>
					<dim>3</dim>
					<dim>3</dim>
				</port>
			</input>
			<output>
				<port id="2" precision="FP32" names="401">
					<dim>1</dim>
					<dim>144</dim>
					<dim>52</dim>
					<dim>52</dim>
				</port>
			</output>
		</layer>
		<layer id="59" name="Constant_68056" type="Const" version="opset1">
			<data element_type="f32" shape="1, 144, 1, 1" offset="84552" size="576"/>
			<output>
				<port id="0" precision="FP32">
					<dim>1</dim>
					<dim>144</dim>
					<dim>1</dim>
					<dim>1</dim>
				</port>
			</output>
		</layer>
		<layer id="60" name="402" type="Add" version="opset1">
			<data auto_broadcast="numpy"/>
			<rt_info>
				<attribute name="fused_names" version="0" value="402, backbone.features.stage3.unit1.conv2.bn.bias, backbone.features.stage3.unit1.conv2.bn.running_mean, backbone.features.stage3.unit1.conv2.bn.running_var, backbone.features.stage3.unit1.conv2.bn.weight"/>
			</rt_info>
			<input>
				<port id="0" precision="FP32">
					<dim>1</dim>
					<dim>144</dim>
					<dim>52</dim>
					<dim>52</dim>
				</port>
				<port id="1" precision="FP32">
					<dim>1</dim>
					<dim>144</dim>
					<dim>1</dim>
					<dim>1</dim>
				</port>
			</input>
			<output>
				<port id="2" precision="FP32" names="402">
					<dim>1</dim>
					<dim>144</dim>
					<dim>52</dim>
					<dim>52</dim>
				</port>
			</output>
		</layer>
		<layer id="61" name="403" type="Clamp" version="opset1">
			<data min="0" max="6"/>
			<rt_info>
				<attribute name="fused_names" version="0" value="403"/>
			</rt_info>
			<input>
				<port id="0" precision="FP32">
					<dim>1</dim>
					<dim>144</dim>
					<dim>52</dim>
					<dim>52</dim>
				</port>
			</input>
			<output>
				<port id="1" precision="FP32" names="403">
					<dim>1</dim>
					<dim>144</dim>
					<dim>52</dim>
					<dim>52</dim>
				</port>
			</output>
		</layer>
		<layer id="62" name="Multiply_68469" type="Const" version="opset1">
			<data element_type="f32" shape="32, 144, 1, 1" offset="85128" size="18432"/>
			<output>
				<port id="0" precision="FP32">
					<dim>32</dim>
					<dim>144</dim>
					<dim>1</dim>
					<dim>1</dim>
				</port>
			</output>
		</layer>
		<layer id="63" name="Multiply_68058" type="Convolution" version="opset1">
			<data strides="1, 1" dilations="1, 1" pads_begin="0, 0" pads_end="0, 0" auto_pad="explicit"/>
			<rt_info>
				<attribute name="fused_names" version="0" value="404, 405, backbone.features.stage3.unit1.conv3.bn.bias, backbone.features.stage3.unit1.conv3.bn.running_mean, backbone.features.stage3.unit1.conv3.bn.running_var, backbone.features.stage3.unit1.conv3.bn.weight"/>
			</rt_info>
			<input>
				<port id="0" precision="FP32">
					<dim>1</dim>
					<dim>144</dim>
					<dim>52</dim>
					<dim>52</dim>
				</port>
				<port id="1" precision="FP32">
					<dim>32</dim>
					<dim>144</dim>
					<dim>1</dim>
					<dim>1</dim>
				</port>
			</input>
			<output>
				<port id="2" precision="FP32">
					<dim>1</dim>
					<dim>32</dim>
					<dim>52</dim>
					<dim>52</dim>
				</port>
			</output>
		</layer>
		<layer id="64" name="Constant_68063" type="Const" version="opset1">
			<data element_type="f32" shape="1, 32, 1, 1" offset="103560" size="128"/>
			<output>
				<port id="0" precision="FP32">
					<dim>1</dim>
					<dim>32</dim>
					<dim>1</dim>
					<dim>1</dim>
				</port>
			</output>
		</layer>
		<layer id="65" name="405" type="Add" version="opset1">
			<data auto_broadcast="numpy"/>
			<rt_info>
				<attribute name="fused_names" version="0" value="405, backbone.features.stage3.unit1.conv3.bn.bias, backbone.features.stage3.unit1.conv3.bn.running_mean, backbone.features.stage3.unit1.conv3.bn.running_var, backbone.features.stage3.unit1.conv3.bn.weight"/>
			</rt_info>
			<input>
				<port id="0" precision="FP32">
					<dim>1</dim>
					<dim>32</dim>
					<dim>52</dim>
					<dim>52</dim>
				</port>
				<port id="1" precision="FP32">
					<dim>1</dim>
					<dim>32</dim>
					<dim>1</dim>
					<dim>1</dim>
				</port>
			</input>
			<output>
				<port id="2" precision="FP32" names="405">
					<dim>1</dim>
					<dim>32</dim>
					<dim>52</dim>
					<dim>52</dim>
				</port>
			</output>
		</layer>
		<layer id="66" name="Multiply_68478" type="Const" version="opset1">
			<data element_type="f32" shape="192, 32, 1, 1" offset="103688" size="24576"/>
			<output>
				<port id="0" precision="FP32">
					<dim>192</dim>
					<dim>32</dim>
					<dim>1</dim>
					<dim>1</dim>
				</port>
			</output>
		</layer>
		<layer id="67" name="Multiply_68065" type="Convolution" version="opset1">
			<data strides="1, 1" dilations="1, 1" pads_begin="0, 0" pads_end="0, 0" auto_pad="explicit"/>
			<rt_info>
				<attribute name="fused_names" version="0" value="406, 407, backbone.features.stage3.unit2.conv1.bn.bias, backbone.features.stage3.unit2.conv1.bn.running_mean, backbone.features.stage3.unit2.conv1.bn.running_var, backbone.features.stage3.unit2.conv1.bn.weight"/>
			</rt_info>
			<input>
				<port id="0" precision="FP32">
					<dim>1</dim>
					<dim>32</dim>
					<dim>52</dim>
					<dim>52</dim>
				</port>
				<port id="1" precision="FP32">
					<dim>192</dim>
					<dim>32</dim>
					<dim>1</dim>
					<dim>1</dim>
				</port>
			</input>
			<output>
				<port id="2" precision="FP32">
					<dim>1</dim>
					<dim>192</dim>
					<dim>52</dim>
					<dim>52</dim>
				</port>
			</output>
		</layer>
		<layer id="68" name="Constant_68070" type="Const" version="opset1">
			<data element_type="f32" shape="1, 192, 1, 1" offset="128264" size="768"/>
			<output>
				<port id="0" precision="FP32">
					<dim>1</dim>
					<dim>192</dim>
					<dim>1</dim>
					<dim>1</dim>
				</port>
			</output>
		</layer>
		<layer id="69" name="407" type="Add" version="opset1">
			<data auto_broadcast="numpy"/>
			<rt_info>
				<attribute name="fused_names" version="0" value="407, backbone.features.stage3.unit2.conv1.bn.bias, backbone.features.stage3.unit2.conv1.bn.running_mean, backbone.features.stage3.unit2.conv1.bn.running_var, backbone.features.stage3.unit2.conv1.bn.weight"/>
			</rt_info>
			<input>
				<port id="0" precision="FP32">
					<dim>1</dim>
					<dim>192</dim>
					<dim>52</dim>
					<dim>52</dim>
				</port>
				<port id="1" precision="FP32">
					<dim>1</dim>
					<dim>192</dim>
					<dim>1</dim>
					<dim>1</dim>
				</port>
			</input>
			<output>
				<port id="2" precision="FP32" names="407">
					<dim>1</dim>
					<dim>192</dim>
					<dim>52</dim>
					<dim>52</dim>
				</port>
			</output>
		</layer>
		<layer id="70" name="408" type="Clamp" version="opset1">
			<data min="0" max="6"/>
			<rt_info>
				<attribute name="fused_names" version="0" value="408"/>
			</rt_info>
			<input>
				<port id="0" precision="FP32">
					<dim>1</dim>
					<dim>192</dim>
					<dim>52</dim>
					<dim>52</dim>
				</port>
			</input>
			<output>
				<port id="1" precision="FP32" names="408">
					<dim>1</dim>
					<dim>192</dim>
					<dim>52</dim>
					<dim>52</dim>
				</port>
			</output>
		</layer>
		<layer id="71" name="Multiply_68487" type="Const" version="opset1">
			<data element_type="f32" shape="192, 1, 1, 3, 3" offset="129032" size="6912"/>
			<output>
				<port id="0" precision="FP32">
					<dim>192</dim>
					<dim>1</dim>
					<dim>1</dim>
					<dim>3</dim>
					<dim>3</dim>
				</port>
			</output>
		</layer>
		<layer id="72" name="Multiply_68072" type="GroupConvolution" version="opset1">
			<data strides="1, 1" pads_begin="1, 1" pads_end="1, 1" dilations="1, 1" auto_pad="explicit"/>
			<rt_info>
				<attribute name="fused_names" version="0" value="410, backbone.features.stage3.unit2.conv2.bn.bias, backbone.features.stage3.unit2.conv2.bn.running_mean, backbone.features.stage3.unit2.conv2.bn.running_var, backbone.features.stage3.unit2.conv2.bn.weight"/>
			</rt_info>
			<input>
				<port id="0" precision="FP32">
					<dim>1</dim>
					<dim>192</dim>
					<dim>52</dim>
					<dim>52</dim>
				</port>
				<port id="1" precision="FP32">
					<dim>192</dim>
					<dim>1</dim>
					<dim>1</dim>
					<dim>3</dim>
					<dim>3</dim>
				</port>
			</input>
			<output>
				<port id="2" precision="FP32" names="409">
					<dim>1</dim>
					<dim>192</dim>
					<dim>52</dim>
					<dim>52</dim>
				</port>
			</output>
		</layer>
		<layer id="73" name="Constant_68077" type="Const" version="opset1">
			<data element_type="f32" shape="1, 192, 1, 1" offset="135944" size="768"/>
			<output>
				<port id="0" precision="FP32">
					<dim>1</dim>
					<dim>192</dim>
					<dim>1</dim>
					<dim>1</dim>
				</port>
			</output>
		</layer>
		<layer id="74" name="410" type="Add" version="opset1">
			<data auto_broadcast="numpy"/>
			<rt_info>
				<attribute name="fused_names" version="0" value="410, backbone.features.stage3.unit2.conv2.bn.bias, backbone.features.stage3.unit2.conv2.bn.running_mean, backbone.features.stage3.unit2.conv2.bn.running_var, backbone.features.stage3.unit2.conv2.bn.weight"/>
			</rt_info>
			<input>
				<port id="0" precision="FP32">
					<dim>1</dim>
					<dim>192</dim>
					<dim>52</dim>
					<dim>52</dim>
				</port>
				<port id="1" precision="FP32">
					<dim>1</dim>
					<dim>192</dim>
					<dim>1</dim>
					<dim>1</dim>
				</port>
			</input>
			<output>
				<port id="2" precision="FP32" names="410">
					<dim>1</dim>
					<dim>192</dim>
					<dim>52</dim>
					<dim>52</dim>
				</port>
			</output>
		</layer>
		<layer id="75" name="411" type="Clamp" version="opset1">
			<data min="0" max="6"/>
			<rt_info>
				<attribute name="fused_names" version="0" value="411"/>
			</rt_info>
			<input>
				<port id="0" precision="FP32">
					<dim>1</dim>
					<dim>192</dim>
					<dim>52</dim>
					<dim>52</dim>
				</port>
			</input>
			<output>
				<port id="1" precision="FP32" names="411">
					<dim>1</dim>
					<dim>192</dim>
					<dim>52</dim>
					<dim>52</dim>
				</port>
			</output>
		</layer>
		<layer id="76" name="Multiply_68495" type="Const" version="opset1">
			<data element_type="f32" shape="32, 192, 1, 1" offset="136712" size="24576"/>
			<output>
				<port id="0" precision="FP32">
					<dim>32</dim>
					<dim>192</dim>
					<dim>1</dim>
					<dim>1</dim>
				</port>
			</output>
		</layer>
		<layer id="77" name="Multiply_68079" type="Convolution" version="opset1">
			<data strides="1, 1" dilations="1, 1" pads_begin="0, 0" pads_end="0, 0" auto_pad="explicit"/>
			<rt_info>
				<attribute name="fused_names" version="0" value="412, 413, backbone.features.stage3.unit2.conv3.bn.bias, backbone.features.stage3.unit2.conv3.bn.running_mean, backbone.features.stage3.unit2.conv3.bn.running_var, backbone.features.stage3.unit2.conv3.bn.weight"/>
			</rt_info>
			<input>
				<port id="0" precision="FP32">
					<dim>1</dim>
					<dim>192</dim>
					<dim>52</dim>
					<dim>52</dim>
				</port>
				<port id="1" precision="FP32">
					<dim>32</dim>
					<dim>192</dim>
					<dim>1</dim>
					<dim>1</dim>
				</port>
			</input>
			<output>
				<port id="2" precision="FP32">
					<dim>1</dim>
					<dim>32</dim>
					<dim>52</dim>
					<dim>52</dim>
				</port>
			</output>
		</layer>
		<layer id="78" name="Constant_68084" type="Const" version="opset1">
			<data element_type="f32" shape="1, 32, 1, 1" offset="161288" size="128"/>
			<output>
				<port id="0" precision="FP32">
					<dim>1</dim>
					<dim>32</dim>
					<dim>1</dim>
					<dim>1</dim>
				</port>
			</output>
		</layer>
		<layer id="79" name="413" type="Add" version="opset1">
			<data auto_broadcast="numpy"/>
			<rt_info>
				<attribute name="fused_names" version="0" value="413, backbone.features.stage3.unit2.conv3.bn.bias, backbone.features.stage3.unit2.conv3.bn.running_mean, backbone.features.stage3.unit2.conv3.bn.running_var, backbone.features.stage3.unit2.conv3.bn.weight"/>
			</rt_info>
			<input>
				<port id="0" precision="FP32">
					<dim>1</dim>
					<dim>32</dim>
					<dim>52</dim>
					<dim>52</dim>
				</port>
				<port id="1" precision="FP32">
					<dim>1</dim>
					<dim>32</dim>
					<dim>1</dim>
					<dim>1</dim>
				</port>
			</input>
			<output>
				<port id="2" precision="FP32" names="413">
					<dim>1</dim>
					<dim>32</dim>
					<dim>52</dim>
					<dim>52</dim>
				</port>
			</output>
		</layer>
		<layer id="80" name="414" type="Add" version="opset1">
			<data auto_broadcast="numpy"/>
			<rt_info>
				<attribute name="fused_names" version="0" value="414"/>
			</rt_info>
			<input>
				<port id="0" precision="FP32">
					<dim>1</dim>
					<dim>32</dim>
					<dim>52</dim>
					<dim>52</dim>
				</port>
				<port id="1" precision="FP32">
					<dim>1</dim>
					<dim>32</dim>
					<dim>52</dim>
					<dim>52</dim>
				</port>
			</input>
			<output>
				<port id="2" precision="FP32" names="414">
					<dim>1</dim>
					<dim>32</dim>
					<dim>52</dim>
					<dim>52</dim>
				</port>
			</output>
		</layer>
		<layer id="81" name="Multiply_68504" type="Const" version="opset1">
			<data element_type="f32" shape="192, 32, 1, 1" offset="161416" size="24576"/>
			<output>
				<port id="0" precision="FP32">
					<dim>192</dim>
					<dim>32</dim>
					<dim>1</dim>
					<dim>1</dim>
				</port>
			</output>
		</layer>
		<layer id="82" name="Multiply_68086" type="Convolution" version="opset1">
			<data strides="1, 1" dilations="1, 1" pads_begin="0, 0" pads_end="0, 0" auto_pad="explicit"/>
			<rt_info>
				<attribute name="fused_names" version="0" value="415, 416, backbone.features.stage3.unit3.conv1.bn.bias, backbone.features.stage3.unit3.conv1.bn.running_mean, backbone.features.stage3.unit3.conv1.bn.running_var, backbone.features.stage3.unit3.conv1.bn.weight"/>
			</rt_info>
			<input>
				<port id="0" precision="FP32">
					<dim>1</dim>
					<dim>32</dim>
					<dim>52</dim>
					<dim>52</dim>
				</port>
				<port id="1" precision="FP32">
					<dim>192</dim>
					<dim>32</dim>
					<dim>1</dim>
					<dim>1</dim>
				</port>
			</input>
			<output>
				<port id="2" precision="FP32">
					<dim>1</dim>
					<dim>192</dim>
					<dim>52</dim>
					<dim>52</dim>
				</port>
			</output>
		</layer>
		<layer id="83" name="Constant_68091" type="Const" version="opset1">
			<data element_type="f32" shape="1, 192, 1, 1" offset="185992" size="768"/>
			<output>
				<port id="0" precision="FP32">
					<dim>1</dim>
					<dim>192</dim>
					<dim>1</dim>
					<dim>1</dim>
				</port>
			</output>
		</layer>
		<layer id="84" name="416" type="Add" version="opset1">
			<data auto_broadcast="numpy"/>
			<rt_info>
				<attribute name="fused_names" version="0" value="416, backbone.features.stage3.unit3.conv1.bn.bias, backbone.features.stage3.unit3.conv1.bn.running_mean, backbone.features.stage3.unit3.conv1.bn.running_var, backbone.features.stage3.unit3.conv1.bn.weight"/>
			</rt_info>
			<input>
				<port id="0" precision="FP32">
					<dim>1</dim>
					<dim>192</dim>
					<dim>52</dim>
					<dim>52</dim>
				</port>
				<port id="1" precision="FP32">
					<dim>1</dim>
					<dim>192</dim>
					<dim>1</dim>
					<dim>1</dim>
				</port>
			</input>
			<output>
				<port id="2" precision="FP32" names="416">
					<dim>1</dim>
					<dim>192</dim>
					<dim>52</dim>
					<dim>52</dim>
				</port>
			</output>
		</layer>
		<layer id="85" name="417" type="Clamp" version="opset1">
			<data min="0" max="6"/>
			<rt_info>
				<attribute name="fused_names" version="0" value="417"/>
			</rt_info>
			<input>
				<port id="0" precision="FP32">
					<dim>1</dim>
					<dim>192</dim>
					<dim>52</dim>
					<dim>52</dim>
				</port>
			</input>
			<output>
				<port id="1" precision="FP32" names="417">
					<dim>1</dim>
					<dim>192</dim>
					<dim>52</dim>
					<dim>52</dim>
				</port>
			</output>
		</layer>
		<layer id="86" name="Multiply_68513" type="Const" version="opset1">
			<data element_type="f32" shape="192, 1, 1, 3, 3" offset="186760" size="6912"/>
			<output>
				<port id="0" precision="FP32">
					<dim>192</dim>
					<dim>1</dim>
					<dim>1</dim>
					<dim>3</dim>
					<dim>3</dim>
				</port>
			</output>
		</layer>
		<layer id="87" name="Multiply_68093" type="GroupConvolution" version="opset1">
			<data strides="1, 1" pads_begin="1, 1" pads_end="1, 1" dilations="1, 1" auto_pad="explicit"/>
			<rt_info>
				<attribute name="fused_names" version="0" value="419, backbone.features.stage3.unit3.conv2.bn.bias, backbone.features.stage3.unit3.conv2.bn.running_mean, backbone.features.stage3.unit3.conv2.bn.running_var, backbone.features.stage3.unit3.conv2.bn.weight"/>
			</rt_info>
			<input>
				<port id="0" precision="FP32">
					<dim>1</dim>
					<dim>192</dim>
					<dim>52</dim>
					<dim>52</dim>
				</port>
				<port id="1" precision="FP32">
					<dim>192</dim>
					<dim>1</dim>
					<dim>1</dim>
					<dim>3</dim>
					<dim>3</dim>
				</port>
			</input>
			<output>
				<port id="2" precision="FP32" names="418">
					<dim>1</dim>
					<dim>192</dim>
					<dim>52</dim>
					<dim>52</dim>
				</port>
			</output>
		</layer>
		<layer id="88" name="Constant_68098" type="Const" version="opset1">
			<data element_type="f32" shape="1, 192, 1, 1" offset="193672" size="768"/>
			<output>
				<port id="0" precision="FP32">
					<dim>1</dim>
					<dim>192</dim>
					<dim>1</dim>
					<dim>1</dim>
				</port>
			</output>
		</layer>
		<layer id="89" name="419" type="Add" version="opset1">
			<data auto_broadcast="numpy"/>
			<rt_info>
				<attribute name="fused_names" version="0" value="419, backbone.features.stage3.unit3.conv2.bn.bias, backbone.features.stage3.unit3.conv2.bn.running_mean, backbone.features.stage3.unit3.conv2.bn.running_var, backbone.features.stage3.unit3.conv2.bn.weight"/>
			</rt_info>
			<input>
				<port id="0" precision="FP32">
					<dim>1</dim>
					<dim>192</dim>
					<dim>52</dim>
					<dim>52</dim>
				</port>
				<port id="1" precision="FP32">
					<dim>1</dim>
					<dim>192</dim>
					<dim>1</dim>
					<dim>1</dim>
				</port>
			</input>
			<output>
				<port id="2" precision="FP32" names="419">
					<dim>1</dim>
					<dim>192</dim>
					<dim>52</dim>
					<dim>52</dim>
				</port>
			</output>
		</layer>
		<layer id="90" name="420" type="Clamp" version="opset1">
			<data min="0" max="6"/>
			<rt_info>
				<attribute name="fused_names" version="0" value="420"/>
			</rt_info>
			<input>
				<port id="0" precision="FP32">
					<dim>1</dim>
					<dim>192</dim>
					<dim>52</dim>
					<dim>52</dim>
				</port>
			</input>
			<output>
				<port id="1" precision="FP32" names="420">
					<dim>1</dim>
					<dim>192</dim>
					<dim>52</dim>
					<dim>52</dim>
				</port>
			</output>
		</layer>
		<layer id="91" name="Multiply_68521" type="Const" version="opset1">
			<data element_type="f32" shape="32, 192, 1, 1" offset="194440" size="24576"/>
			<output>
				<port id="0" precision="FP32">
					<dim>32</dim>
					<dim>192</dim>
					<dim>1</dim>
					<dim>1</dim>
				</port>
			</output>
		</layer>
		<layer id="92" name="Multiply_68100" type="Convolution" version="opset1">
			<data strides="1, 1" dilations="1, 1" pads_begin="0, 0" pads_end="0, 0" auto_pad="explicit"/>
			<rt_info>
				<attribute name="fused_names" version="0" value="421, 422, backbone.features.stage3.unit3.conv3.bn.bias, backbone.features.stage3.unit3.conv3.bn.running_mean, backbone.features.stage3.unit3.conv3.bn.running_var, backbone.features.stage3.unit3.conv3.bn.weight"/>
			</rt_info>
			<input>
				<port id="0" precision="FP32">
					<dim>1</dim>
					<dim>192</dim>
					<dim>52</dim>
					<dim>52</dim>
				</port>
				<port id="1" precision="FP32">
					<dim>32</dim>
					<dim>192</dim>
					<dim>1</dim>
					<dim>1</dim>
				</port>
			</input>
			<output>
				<port id="2" precision="FP32">
					<dim>1</dim>
					<dim>32</dim>
					<dim>52</dim>
					<dim>52</dim>
				</port>
			</output>
		</layer>
		<layer id="93" name="Constant_68105" type="Const" version="opset1">
			<data element_type="f32" shape="1, 32, 1, 1" offset="219016" size="128"/>
			<output>
				<port id="0" precision="FP32">
					<dim>1</dim>
					<dim>32</dim>
					<dim>1</dim>
					<dim>1</dim>
				</port>
			</output>
		</layer>
		<layer id="94" name="422" type="Add" version="opset1">
			<data auto_broadcast="numpy"/>
			<rt_info>
				<attribute name="fused_names" version="0" value="422, backbone.features.stage3.unit3.conv3.bn.bias, backbone.features.stage3.unit3.conv3.bn.running_mean, backbone.features.stage3.unit3.conv3.bn.running_var, backbone.features.stage3.unit3.conv3.bn.weight"/>
			</rt_info>
			<input>
				<port id="0" precision="FP32">
					<dim>1</dim>
					<dim>32</dim>
					<dim>52</dim>
					<dim>52</dim>
				</port>
				<port id="1" precision="FP32">
					<dim>1</dim>
					<dim>32</dim>
					<dim>1</dim>
					<dim>1</dim>
				</port>
			</input>
			<output>
				<port id="2" precision="FP32" names="422">
					<dim>1</dim>
					<dim>32</dim>
					<dim>52</dim>
					<dim>52</dim>
				</port>
			</output>
		</layer>
		<layer id="95" name="423" type="Add" version="opset1">
			<data auto_broadcast="numpy"/>
			<rt_info>
				<attribute name="fused_names" version="0" value="423"/>
			</rt_info>
			<input>
				<port id="0" precision="FP32">
					<dim>1</dim>
					<dim>32</dim>
					<dim>52</dim>
					<dim>52</dim>
				</port>
				<port id="1" precision="FP32">
					<dim>1</dim>
					<dim>32</dim>
					<dim>52</dim>
					<dim>52</dim>
				</port>
			</input>
			<output>
				<port id="2" precision="FP32" names="423">
					<dim>1</dim>
					<dim>32</dim>
					<dim>52</dim>
					<dim>52</dim>
				</port>
			</output>
		</layer>
		<layer id="96" name="neck.lateral_convs.0.conv.weight" type="Const" version="opset1">
			<data element_type="f32" shape="48, 32, 1, 1" offset="219144" size="6144"/>
			<rt_info>
				<attribute name="fused_names" version="0" value="neck.lateral_convs.0.conv.weight"/>
			</rt_info>
			<output>
				<port id="0" precision="FP32" names="neck.lateral_convs.0.conv.weight">
					<dim>48</dim>
					<dim>32</dim>
					<dim>1</dim>
					<dim>1</dim>
				</port>
			</output>
		</layer>
		<layer id="97" name="Convolution_2014" type="Convolution" version="opset1">
			<data strides="1, 1" dilations="1, 1" pads_begin="0, 0" pads_end="0, 0" auto_pad="explicit"/>
			<rt_info>
				<attribute name="fused_names" version="0" value="Convolution_2014"/>
			</rt_info>
			<input>
				<port id="0" precision="FP32">
					<dim>1</dim>
					<dim>32</dim>
					<dim>52</dim>
					<dim>52</dim>
				</port>
				<port id="1" precision="FP32">
					<dim>48</dim>
					<dim>32</dim>
					<dim>1</dim>
					<dim>1</dim>
				</port>
			</input>
			<output>
				<port id="2" precision="FP32">
					<dim>1</dim>
					<dim>48</dim>
					<dim>52</dim>
					<dim>52</dim>
				</port>
			</output>
		</layer>
		<layer id="98" name="Reshape_2034" type="Const" version="opset1">
			<data element_type="f32" shape="1, 48, 1, 1" offset="225288" size="192"/>
			<output>
				<port id="0" precision="FP32">
					<dim>1</dim>
					<dim>48</dim>
					<dim>1</dim>
					<dim>1</dim>
				</port>
			</output>
		</layer>
		<layer id="99" name="519" type="Add" version="opset1">
			<data auto_broadcast="numpy"/>
			<rt_info>
				<attribute name="fused_names" version="0" value="519, Concat_2033, Reshape_2034"/>
			</rt_info>
			<input>
				<port id="0" precision="FP32">
					<dim>1</dim>
					<dim>48</dim>
					<dim>52</dim>
					<dim>52</dim>
				</port>
				<port id="1" precision="FP32">
					<dim>1</dim>
					<dim>48</dim>
					<dim>1</dim>
					<dim>1</dim>
				</port>
			</input>
			<output>
				<port id="2" precision="FP32" names="519">
					<dim>1</dim>
					<dim>48</dim>
					<dim>52</dim>
					<dim>52</dim>
				</port>
			</output>
		</layer>
		<layer id="100" name="Multiply_68530" type="Const" version="opset1">
			<data element_type="f32" shape="192, 32, 1, 1" offset="225480" size="24576"/>
			<output>
				<port id="0" precision="FP32">
					<dim>192</dim>
					<dim>32</dim>
					<dim>1</dim>
					<dim>1</dim>
				</port>
			</output>
		</layer>
		<layer id="101" name="Multiply_68107" type="Convolution" version="opset1">
			<data strides="1, 1" dilations="1, 1" pads_begin="0, 0" pads_end="0, 0" auto_pad="explicit"/>
			<rt_info>
				<attribute name="fused_names" version="0" value="424, 425, backbone.features.stage4.unit1.conv1.bn.bias, backbone.features.stage4.unit1.conv1.bn.running_mean, backbone.features.stage4.unit1.conv1.bn.running_var, backbone.features.stage4.unit1.conv1.bn.weight"/>
			</rt_info>
			<input>
				<port id="0" precision="FP32">
					<dim>1</dim>
					<dim>32</dim>
					<dim>52</dim>
					<dim>52</dim>
				</port>
				<port id="1" precision="FP32">
					<dim>192</dim>
					<dim>32</dim>
					<dim>1</dim>
					<dim>1</dim>
				</port>
			</input>
			<output>
				<port id="2" precision="FP32">
					<dim>1</dim>
					<dim>192</dim>
					<dim>52</dim>
					<dim>52</dim>
				</port>
			</output>
		</layer>
		<layer id="102" name="Constant_68112" type="Const" version="opset1">
			<data element_type="f32" shape="1, 192, 1, 1" offset="250056" size="768"/>
			<output>
				<port id="0" precision="FP32">
					<dim>1</dim>
					<dim>192</dim>
					<dim>1</dim>
					<dim>1</dim>
				</port>
			</output>
		</layer>
		<layer id="103" name="425" type="Add" version="opset1">
			<data auto_broadcast="numpy"/>
			<rt_info>
				<attribute name="fused_names" version="0" value="425, backbone.features.stage4.unit1.conv1.bn.bias, backbone.features.stage4.unit1.conv1.bn.running_mean, backbone.features.stage4.unit1.conv1.bn.running_var, backbone.features.stage4.unit1.conv1.bn.weight"/>
			</rt_info>
			<input>
				<port id="0" precision="FP32">
					<dim>1</dim>
					<dim>192</dim>
					<dim>52</dim>
					<dim>52</dim>
				</port>
				<port id="1" precision="FP32">
					<dim>1</dim>
					<dim>192</dim>
					<dim>1</dim>
					<dim>1</dim>
				</port>
			</input>
			<output>
				<port id="2" precision="FP32" names="425">
					<dim>1</dim>
					<dim>192</dim>
					<dim>52</dim>
					<dim>52</dim>
				</port>
			</output>
		</layer>
		<layer id="104" name="426" type="Clamp" version="opset1">
			<data min="0" max="6"/>
			<rt_info>
				<attribute name="fused_names" version="0" value="426"/>
			</rt_info>
			<input>
				<port id="0" precision="FP32">
					<dim>1</dim>
					<dim>192</dim>
					<dim>52</dim>
					<dim>52</dim>
				</port>
			</input>
			<output>
				<port id="1" precision="FP32" names="426">
					<dim>1</dim>
					<dim>192</dim>
					<dim>52</dim>
					<dim>52</dim>
				</port>
			</output>
		</layer>
		<layer id="105" name="Multiply_68539" type="Const" version="opset1">
			<data element_type="f32" shape="192, 1, 1, 3, 3" offset="250824" size="6912"/>
			<output>
				<port id="0" precision="FP32">
					<dim>192</dim>
					<dim>1</dim>
					<dim>1</dim>
					<dim>3</dim>
					<dim>3</dim>
				</port>
			</output>
		</layer>
		<layer id="106" name="Multiply_68114" type="GroupConvolution" version="opset1">
			<data strides="2, 2" pads_begin="1, 1" pads_end="1, 1" dilations="1, 1" auto_pad="explicit"/>
			<rt_info>
				<attribute name="fused_names" version="0" value="428, backbone.features.stage4.unit1.conv2.bn.bias, backbone.features.stage4.unit1.conv2.bn.running_mean, backbone.features.stage4.unit1.conv2.bn.running_var, backbone.features.stage4.unit1.conv2.bn.weight"/>
			</rt_info>
			<input>
				<port id="0" precision="FP32">
					<dim>1</dim>
					<dim>192</dim>
					<dim>52</dim>
					<dim>52</dim>
				</port>
				<port id="1" precision="FP32">
					<dim>192</dim>
					<dim>1</dim>
					<dim>1</dim>
					<dim>3</dim>
					<dim>3</dim>
				</port>
			</input>
			<output>
				<port id="2" precision="FP32" names="427">
					<dim>1</dim>
					<dim>192</dim>
					<dim>26</dim>
					<dim>26</dim>
				</port>
			</output>
		</layer>
		<layer id="107" name="Constant_68119" type="Const" version="opset1">
			<data element_type="f32" shape="1, 192, 1, 1" offset="257736" size="768"/>
			<output>
				<port id="0" precision="FP32">
					<dim>1</dim>
					<dim>192</dim>
					<dim>1</dim>
					<dim>1</dim>
				</port>
			</output>
		</layer>
		<layer id="108" name="428" type="Add" version="opset1">
			<data auto_broadcast="numpy"/>
			<rt_info>
				<attribute name="fused_names" version="0" value="428, backbone.features.stage4.unit1.conv2.bn.bias, backbone.features.stage4.unit1.conv2.bn.running_mean, backbone.features.stage4.unit1.conv2.bn.running_var, backbone.features.stage4.unit1.conv2.bn.weight"/>
			</rt_info>
			<input>
				<port id="0" precision="FP32">
					<dim>1</dim>
					<dim>192</dim>
					<dim>26</dim>
					<dim>26</dim>
				</port>
				<port id="1" precision="FP32">
					<dim>1</dim>
					<dim>192</dim>
					<dim>1</dim>
					<dim>1</dim>
				</port>
			</input>
			<output>
				<port id="2" precision="FP32" names="428">
					<dim>1</dim>
					<dim>192</dim>
					<dim>26</dim>
					<dim>26</dim>
				</port>
			</output>
		</layer>
		<layer id="109" name="429" type="Clamp" version="opset1">
			<data min="0" max="6"/>
			<rt_info>
				<attribute name="fused_names" version="0" value="429"/>
			</rt_info>
			<input>
				<port id="0" precision="FP32">
					<dim>1</dim>
					<dim>192</dim>
					<dim>26</dim>
					<dim>26</dim>
				</port>
			</input>
			<output>
				<port id="1" precision="FP32" names="429">
					<dim>1</dim>
					<dim>192</dim>
					<dim>26</dim>
					<dim>26</dim>
				</port>
			</output>
		</layer>
		<layer id="110" name="Multiply_68547" type="Const" version="opset1">
			<data element_type="f32" shape="64, 192, 1, 1" offset="258504" size="49152"/>
			<output>
				<port id="0" precision="FP32">
					<dim>64</dim>
					<dim>192</dim>
					<dim>1</dim>
					<dim>1</dim>
				</port>
			</output>
		</layer>
		<layer id="111" name="Multiply_68121" type="Convolution" version="opset1">
			<data strides="1, 1" dilations="1, 1" pads_begin="0, 0" pads_end="0, 0" auto_pad="explicit"/>
			<rt_info>
				<attribute name="fused_names" version="0" value="430, 431, backbone.features.stage4.unit1.conv3.bn.bias, backbone.features.stage4.unit1.conv3.bn.running_mean, backbone.features.stage4.unit1.conv3.bn.running_var, backbone.features.stage4.unit1.conv3.bn.weight"/>
			</rt_info>
			<input>
				<port id="0" precision="FP32">
					<dim>1</dim>
					<dim>192</dim>
					<dim>26</dim>
					<dim>26</dim>
				</port>
				<port id="1" precision="FP32">
					<dim>64</dim>
					<dim>192</dim>
					<dim>1</dim>
					<dim>1</dim>
				</port>
			</input>
			<output>
				<port id="2" precision="FP32">
					<dim>1</dim>
					<dim>64</dim>
					<dim>26</dim>
					<dim>26</dim>
				</port>
			</output>
		</layer>
		<layer id="112" name="Constant_68126" type="Const" version="opset1">
			<data element_type="f32" shape="1, 64, 1, 1" offset="307656" size="256"/>
			<output>
				<port id="0" precision="FP32">
					<dim>1</dim>
					<dim>64</dim>
					<dim>1</dim>
					<dim>1</dim>
				</port>
			</output>
		</layer>
		<layer id="113" name="431" type="Add" version="opset1">
			<data auto_broadcast="numpy"/>
			<rt_info>
				<attribute name="fused_names" version="0" value="431, backbone.features.stage4.unit1.conv3.bn.bias, backbone.features.stage4.unit1.conv3.bn.running_mean, backbone.features.stage4.unit1.conv3.bn.running_var, backbone.features.stage4.unit1.conv3.bn.weight"/>
			</rt_info>
			<input>
				<port id="0" precision="FP32">
					<dim>1</dim>
					<dim>64</dim>
					<dim>26</dim>
					<dim>26</dim>
				</port>
				<port id="1" precision="FP32">
					<dim>1</dim>
					<dim>64</dim>
					<dim>1</dim>
					<dim>1</dim>
				</port>
			</input>
			<output>
				<port id="2" precision="FP32" names="431">
					<dim>1</dim>
					<dim>64</dim>
					<dim>26</dim>
					<dim>26</dim>
				</port>
			</output>
		</layer>
		<layer id="114" name="Multiply_68556" type="Const" version="opset1">
			<data element_type="f32" shape="384, 64, 1, 1" offset="307912" size="98304"/>
			<output>
				<port id="0" precision="FP32">
					<dim>384</dim>
					<dim>64</dim>
					<dim>1</dim>
					<dim>1</dim>
				</port>
			</output>
		</layer>
		<layer id="115" name="Multiply_68128" type="Convolution" version="opset1">
			<data strides="1, 1" dilations="1, 1" pads_begin="0, 0" pads_end="0, 0" auto_pad="explicit"/>
			<rt_info>
				<attribute name="fused_names" version="0" value="432, 433, backbone.features.stage4.unit2.conv1.bn.bias, backbone.features.stage4.unit2.conv1.bn.running_mean, backbone.features.stage4.unit2.conv1.bn.running_var, backbone.features.stage4.unit2.conv1.bn.weight"/>
			</rt_info>
			<input>
				<port id="0" precision="FP32">
					<dim>1</dim>
					<dim>64</dim>
					<dim>26</dim>
					<dim>26</dim>
				</port>
				<port id="1" precision="FP32">
					<dim>384</dim>
					<dim>64</dim>
					<dim>1</dim>
					<dim>1</dim>
				</port>
			</input>
			<output>
				<port id="2" precision="FP32">
					<dim>1</dim>
					<dim>384</dim>
					<dim>26</dim>
					<dim>26</dim>
				</port>
			</output>
		</layer>
		<layer id="116" name="Constant_68133" type="Const" version="opset1">
			<data element_type="f32" shape="1, 384, 1, 1" offset="406216" size="1536"/>
			<output>
				<port id="0" precision="FP32">
					<dim>1</dim>
					<dim>384</dim>
					<dim>1</dim>
					<dim>1</dim>
				</port>
			</output>
		</layer>
		<layer id="117" name="433" type="Add" version="opset1">
			<data auto_broadcast="numpy"/>
			<rt_info>
				<attribute name="fused_names" version="0" value="433, backbone.features.stage4.unit2.conv1.bn.bias, backbone.features.stage4.unit2.conv1.bn.running_mean, backbone.features.stage4.unit2.conv1.bn.running_var, backbone.features.stage4.unit2.conv1.bn.weight"/>
			</rt_info>
			<input>
				<port id="0" precision="FP32">
					<dim>1</dim>
					<dim>384</dim>
					<dim>26</dim>
					<dim>26</dim>
				</port>
				<port id="1" precision="FP32">
					<dim>1</dim>
					<dim>384</dim>
					<dim>1</dim>
					<dim>1</dim>
				</port>
			</input>
			<output>
				<port id="2" precision="FP32" names="433">
					<dim>1</dim>
					<dim>384</dim>
					<dim>26</dim>
					<dim>26</dim>
				</port>
			</output>
		</layer>
		<layer id="118" name="434" type="Clamp" version="opset1">
			<data min="0" max="6"/>
			<rt_info>
				<attribute name="fused_names" version="0" value="434"/>
			</rt_info>
			<input>
				<port id="0" precision="FP32">
					<dim>1</dim>
					<dim>384</dim>
					<dim>26</dim>
					<dim>26</dim>
				</port>
			</input>
			<output>
				<port id="1" precision="FP32" names="434">
					<dim>1</dim>
					<dim>384</dim>
					<dim>26</dim>
					<dim>26</dim>
				</port>
			</output>
		</layer>
		<layer id="119" name="Multiply_68565" type="Const" version="opset1">
			<data element_type="f32" shape="384, 1, 1, 3, 3" offset="407752" size="13824"/>
			<output>
				<port id="0" precision="FP32">
					<dim>384</dim>
					<dim>1</dim>
					<dim>1</dim>
					<dim>3</dim>
					<dim>3</dim>
				</port>
			</output>
		</layer>
		<layer id="120" name="Multiply_68135" type="GroupConvolution" version="opset1">
			<data strides="1, 1" pads_begin="1, 1" pads_end="1, 1" dilations="1, 1" auto_pad="explicit"/>
			<rt_info>
				<attribute name="fused_names" version="0" value="436, backbone.features.stage4.unit2.conv2.bn.bias, backbone.features.stage4.unit2.conv2.bn.running_mean, backbone.features.stage4.unit2.conv2.bn.running_var, backbone.features.stage4.unit2.conv2.bn.weight"/>
			</rt_info>
			<input>
				<port id="0" precision="FP32">
					<dim>1</dim>
					<dim>384</dim>
					<dim>26</dim>
					<dim>26</dim>
				</port>
				<port id="1" precision="FP32">
					<dim>384</dim>
					<dim>1</dim>
					<dim>1</dim>
					<dim>3</dim>
					<dim>3</dim>
				</port>
			</input>
			<output>
				<port id="2" precision="FP32" names="435">
					<dim>1</dim>
					<dim>384</dim>
					<dim>26</dim>
					<dim>26</dim>
				</port>
			</output>
		</layer>
		<layer id="121" name="Constant_68140" type="Const" version="opset1">
			<data element_type="f32" shape="1, 384, 1, 1" offset="421576" size="1536"/>
			<output>
				<port id="0" precision="FP32">
					<dim>1</dim>
					<dim>384</dim>
					<dim>1</dim>
					<dim>1</dim>
				</port>
			</output>
		</layer>
		<layer id="122" name="436" type="Add" version="opset1">
			<data auto_broadcast="numpy"/>
			<rt_info>
				<attribute name="fused_names" version="0" value="436, backbone.features.stage4.unit2.conv2.bn.bias, backbone.features.stage4.unit2.conv2.bn.running_mean, backbone.features.stage4.unit2.conv2.bn.running_var, backbone.features.stage4.unit2.conv2.bn.weight"/>
			</rt_info>
			<input>
				<port id="0" precision="FP32">
					<dim>1</dim>
					<dim>384</dim>
					<dim>26</dim>
					<dim>26</dim>
				</port>
				<port id="1" precision="FP32">
					<dim>1</dim>
					<dim>384</dim>
					<dim>1</dim>
					<dim>1</dim>
				</port>
			</input>
			<output>
				<port id="2" precision="FP32" names="436">
					<dim>1</dim>
					<dim>384</dim>
					<dim>26</dim>
					<dim>26</dim>
				</port>
			</output>
		</layer>
		<layer id="123" name="437" type="Clamp" version="opset1">
			<data min="0" max="6"/>
			<rt_info>
				<attribute name="fused_names" version="0" value="437"/>
			</rt_info>
			<input>
				<port id="0" precision="FP32">
					<dim>1</dim>
					<dim>384</dim>
					<dim>26</dim>
					<dim>26</dim>
				</port>
			</input>
			<output>
				<port id="1" precision="FP32" names="437">
					<dim>1</dim>
					<dim>384</dim>
					<dim>26</dim>
					<dim>26</dim>
				</port>
			</output>
		</layer>
		<layer id="124" name="Multiply_68573" type="Const" version="opset1">
			<data element_type="f32" shape="64, 384, 1, 1" offset="423112" size="98304"/>
			<output>
				<port id="0" precision="FP32">
					<dim>64</dim>
					<dim>384</dim>
					<dim>1</dim>
					<dim>1</dim>
				</port>
			</output>
		</layer>
		<layer id="125" name="Multiply_68142" type="Convolution" version="opset1">
			<data strides="1, 1" dilations="1, 1" pads_begin="0, 0" pads_end="0, 0" auto_pad="explicit"/>
			<rt_info>
				<attribute name="fused_names" version="0" value="438, 439, backbone.features.stage4.unit2.conv3.bn.bias, backbone.features.stage4.unit2.conv3.bn.running_mean, backbone.features.stage4.unit2.conv3.bn.running_var, backbone.features.stage4.unit2.conv3.bn.weight"/>
			</rt_info>
			<input>
				<port id="0" precision="FP32">
					<dim>1</dim>
					<dim>384</dim>
					<dim>26</dim>
					<dim>26</dim>
				</port>
				<port id="1" precision="FP32">
					<dim>64</dim>
					<dim>384</dim>
					<dim>1</dim>
					<dim>1</dim>
				</port>
			</input>
			<output>
				<port id="2" precision="FP32">
					<dim>1</dim>
					<dim>64</dim>
					<dim>26</dim>
					<dim>26</dim>
				</port>
			</output>
		</layer>
		<layer id="126" name="Constant_68147" type="Const" version="opset1">
			<data element_type="f32" shape="1, 64, 1, 1" offset="521416" size="256"/>
			<output>
				<port id="0" precision="FP32">
					<dim>1</dim>
					<dim>64</dim>
					<dim>1</dim>
					<dim>1</dim>
				</port>
			</output>
		</layer>
		<layer id="127" name="439" type="Add" version="opset1">
			<data auto_broadcast="numpy"/>
			<rt_info>
				<attribute name="fused_names" version="0" value="439, backbone.features.stage4.unit2.conv3.bn.bias, backbone.features.stage4.unit2.conv3.bn.running_mean, backbone.features.stage4.unit2.conv3.bn.running_var, backbone.features.stage4.unit2.conv3.bn.weight"/>
			</rt_info>
			<input>
				<port id="0" precision="FP32">
					<dim>1</dim>
					<dim>64</dim>
					<dim>26</dim>
					<dim>26</dim>
				</port>
				<port id="1" precision="FP32">
					<dim>1</dim>
					<dim>64</dim>
					<dim>1</dim>
					<dim>1</dim>
				</port>
			</input>
			<output>
				<port id="2" precision="FP32" names="439">
					<dim>1</dim>
					<dim>64</dim>
					<dim>26</dim>
					<dim>26</dim>
				</port>
			</output>
		</layer>
		<layer id="128" name="440" type="Add" version="opset1">
			<data auto_broadcast="numpy"/>
			<rt_info>
				<attribute name="fused_names" version="0" value="440"/>
			</rt_info>
			<input>
				<port id="0" precision="FP32">
					<dim>1</dim>
					<dim>64</dim>
					<dim>26</dim>
					<dim>26</dim>
				</port>
				<port id="1" precision="FP32">
					<dim>1</dim>
					<dim>64</dim>
					<dim>26</dim>
					<dim>26</dim>
				</port>
			</input>
			<output>
				<port id="2" precision="FP32" names="440">
					<dim>1</dim>
					<dim>64</dim>
					<dim>26</dim>
					<dim>26</dim>
				</port>
			</output>
		</layer>
		<layer id="129" name="Multiply_68582" type="Const" version="opset1">
			<data element_type="f32" shape="384, 64, 1, 1" offset="521672" size="98304"/>
			<output>
				<port id="0" precision="FP32">
					<dim>384</dim>
					<dim>64</dim>
					<dim>1</dim>
					<dim>1</dim>
				</port>
			</output>
		</layer>
		<layer id="130" name="Multiply_68149" type="Convolution" version="opset1">
			<data strides="1, 1" dilations="1, 1" pads_begin="0, 0" pads_end="0, 0" auto_pad="explicit"/>
			<rt_info>
				<attribute name="fused_names" version="0" value="441, 442, backbone.features.stage4.unit3.conv1.bn.bias, backbone.features.stage4.unit3.conv1.bn.running_mean, backbone.features.stage4.unit3.conv1.bn.running_var, backbone.features.stage4.unit3.conv1.bn.weight"/>
			</rt_info>
			<input>
				<port id="0" precision="FP32">
					<dim>1</dim>
					<dim>64</dim>
					<dim>26</dim>
					<dim>26</dim>
				</port>
				<port id="1" precision="FP32">
					<dim>384</dim>
					<dim>64</dim>
					<dim>1</dim>
					<dim>1</dim>
				</port>
			</input>
			<output>
				<port id="2" precision="FP32">
					<dim>1</dim>
					<dim>384</dim>
					<dim>26</dim>
					<dim>26</dim>
				</port>
			</output>
		</layer>
		<layer id="131" name="Constant_68154" type="Const" version="opset1">
			<data element_type="f32" shape="1, 384, 1, 1" offset="619976" size="1536"/>
			<output>
				<port id="0" precision="FP32">
					<dim>1</dim>
					<dim>384</dim>
					<dim>1</dim>
					<dim>1</dim>
				</port>
			</output>
		</layer>
		<layer id="132" name="442" type="Add" version="opset1">
			<data auto_broadcast="numpy"/>
			<rt_info>
				<attribute name="fused_names" version="0" value="442, backbone.features.stage4.unit3.conv1.bn.bias, backbone.features.stage4.unit3.conv1.bn.running_mean, backbone.features.stage4.unit3.conv1.bn.running_var, backbone.features.stage4.unit3.conv1.bn.weight"/>
			</rt_info>
			<input>
				<port id="0" precision="FP32">
					<dim>1</dim>
					<dim>384</dim>
					<dim>26</dim>
					<dim>26</dim>
				</port>
				<port id="1" precision="FP32">
					<dim>1</dim>
					<dim>384</dim>
					<dim>1</dim>
					<dim>1</dim>
				</port>
			</input>
			<output>
				<port id="2" precision="FP32" names="442">
					<dim>1</dim>
					<dim>384</dim>
					<dim>26</dim>
					<dim>26</dim>
				</port>
			</output>
		</layer>
		<layer id="133" name="443" type="Clamp" version="opset1">
			<data min="0" max="6"/>
			<rt_info>
				<attribute name="fused_names" version="0" value="443"/>
			</rt_info>
			<input>
				<port id="0" precision="FP32">
					<dim>1</dim>
					<dim>384</dim>
					<dim>26</dim>
					<dim>26</dim>
				</port>
			</input>
			<output>
				<port id="1" precision="FP32" names="443">
					<dim>1</dim>
					<dim>384</dim>
					<dim>26</dim>
					<dim>26</dim>
				</port>
			</output>
		</layer>
		<layer id="134" name="Multiply_68591" type="Const" version="opset1">
			<data element_type="f32" shape="384, 1, 1, 3, 3" offset="621512" size="13824"/>
			<output>
				<port id="0" precision="FP32">
					<dim>384</dim>
					<dim>1</dim>
					<dim>1</dim>
					<dim>3</dim>
					<dim>3</dim>
				</port>
			</output>
		</layer>
		<layer id="135" name="Multiply_68156" type="GroupConvolution" version="opset1">
			<data strides="1, 1" pads_begin="1, 1" pads_end="1, 1" dilations="1, 1" auto_pad="explicit"/>
			<rt_info>
				<attribute name="fused_names" version="0" value="445, backbone.features.stage4.unit3.conv2.bn.bias, backbone.features.stage4.unit3.conv2.bn.running_mean, backbone.features.stage4.unit3.conv2.bn.running_var, backbone.features.stage4.unit3.conv2.bn.weight"/>
			</rt_info>
			<input>
				<port id="0" precision="FP32">
					<dim>1</dim>
					<dim>384</dim>
					<dim>26</dim>
					<dim>26</dim>
				</port>
				<port id="1" precision="FP32">
					<dim>384</dim>
					<dim>1</dim>
					<dim>1</dim>
					<dim>3</dim>
					<dim>3</dim>
				</port>
			</input>
			<output>
				<port id="2" precision="FP32" names="444">
					<dim>1</dim>
					<dim>384</dim>
					<dim>26</dim>
					<dim>26</dim>
				</port>
			</output>
		</layer>
		<layer id="136" name="Constant_68161" type="Const" version="opset1">
			<data element_type="f32" shape="1, 384, 1, 1" offset="635336" size="1536"/>
			<output>
				<port id="0" precision="FP32">
					<dim>1</dim>
					<dim>384</dim>
					<dim>1</dim>
					<dim>1</dim>
				</port>
			</output>
		</layer>
		<layer id="137" name="445" type="Add" version="opset1">
			<data auto_broadcast="numpy"/>
			<rt_info>
				<attribute name="fused_names" version="0" value="445, backbone.features.stage4.unit3.conv2.bn.bias, backbone.features.stage4.unit3.conv2.bn.running_mean, backbone.features.stage4.unit3.conv2.bn.running_var, backbone.features.stage4.unit3.conv2.bn.weight"/>
			</rt_info>
			<input>
				<port id="0" precision="FP32">
					<dim>1</dim>
					<dim>384</dim>
					<dim>26</dim>
					<dim>26</dim>
				</port>
				<port id="1" precision="FP32">
					<dim>1</dim>
					<dim>384</dim>
					<dim>1</dim>
					<dim>1</dim>
				</port>
			</input>
			<output>
				<port id="2" precision="FP32" names="445">
					<dim>1</dim>
					<dim>384</dim>
					<dim>26</dim>
					<dim>26</dim>
				</port>
			</output>
		</layer>
		<layer id="138" name="446" type="Clamp" version="opset1">
			<data min="0" max="6"/>
			<rt_info>
				<attribute name="fused_names" version="0" value="446"/>
			</rt_info>
			<input>
				<port id="0" precision="FP32">
					<dim>1</dim>
					<dim>384</dim>
					<dim>26</dim>
					<dim>26</dim>
				</port>
			</input>
			<output>
				<port id="1" precision="FP32" names="446">
					<dim>1</dim>
					<dim>384</dim>
					<dim>26</dim>
					<dim>26</dim>
				</port>
			</output>
		</layer>
		<layer id="139" name="Multiply_68599" type="Const" version="opset1">
			<data element_type="f32" shape="64, 384, 1, 1" offset="636872" size="98304"/>
			<output>
				<port id="0" precision="FP32">
					<dim>64</dim>
					<dim>384</dim>
					<dim>1</dim>
					<dim>1</dim>
				</port>
			</output>
		</layer>
		<layer id="140" name="Multiply_68163" type="Convolution" version="opset1">
			<data strides="1, 1" dilations="1, 1" pads_begin="0, 0" pads_end="0, 0" auto_pad="explicit"/>
			<rt_info>
				<attribute name="fused_names" version="0" value="447, 448, backbone.features.stage4.unit3.conv3.bn.bias, backbone.features.stage4.unit3.conv3.bn.running_mean, backbone.features.stage4.unit3.conv3.bn.running_var, backbone.features.stage4.unit3.conv3.bn.weight"/>
			</rt_info>
			<input>
				<port id="0" precision="FP32">
					<dim>1</dim>
					<dim>384</dim>
					<dim>26</dim>
					<dim>26</dim>
				</port>
				<port id="1" precision="FP32">
					<dim>64</dim>
					<dim>384</dim>
					<dim>1</dim>
					<dim>1</dim>
				</port>
			</input>
			<output>
				<port id="2" precision="FP32">
					<dim>1</dim>
					<dim>64</dim>
					<dim>26</dim>
					<dim>26</dim>
				</port>
			</output>
		</layer>
		<layer id="141" name="Constant_68168" type="Const" version="opset1">
			<data element_type="f32" shape="1, 64, 1, 1" offset="735176" size="256"/>
			<output>
				<port id="0" precision="FP32">
					<dim>1</dim>
					<dim>64</dim>
					<dim>1</dim>
					<dim>1</dim>
				</port>
			</output>
		</layer>
		<layer id="142" name="448" type="Add" version="opset1">
			<data auto_broadcast="numpy"/>
			<rt_info>
				<attribute name="fused_names" version="0" value="448, backbone.features.stage4.unit3.conv3.bn.bias, backbone.features.stage4.unit3.conv3.bn.running_mean, backbone.features.stage4.unit3.conv3.bn.running_var, backbone.features.stage4.unit3.conv3.bn.weight"/>
			</rt_info>
			<input>
				<port id="0" precision="FP32">
					<dim>1</dim>
					<dim>64</dim>
					<dim>26</dim>
					<dim>26</dim>
				</port>
				<port id="1" precision="FP32">
					<dim>1</dim>
					<dim>64</dim>
					<dim>1</dim>
					<dim>1</dim>
				</port>
			</input>
			<output>
				<port id="2" precision="FP32" names="448">
					<dim>1</dim>
					<dim>64</dim>
					<dim>26</dim>
					<dim>26</dim>
				</port>
			</output>
		</layer>
		<layer id="143" name="449" type="Add" version="opset1">
			<data auto_broadcast="numpy"/>
			<rt_info>
				<attribute name="fused_names" version="0" value="449"/>
			</rt_info>
			<input>
				<port id="0" precision="FP32">
					<dim>1</dim>
					<dim>64</dim>
					<dim>26</dim>
					<dim>26</dim>
				</port>
				<port id="1" precision="FP32">
					<dim>1</dim>
					<dim>64</dim>
					<dim>26</dim>
					<dim>26</dim>
				</port>
			</input>
			<output>
				<port id="2" precision="FP32" names="449">
					<dim>1</dim>
					<dim>64</dim>
					<dim>26</dim>
					<dim>26</dim>
				</port>
			</output>
		</layer>
		<layer id="144" name="Multiply_68608" type="Const" version="opset1">
			<data element_type="f32" shape="384, 64, 1, 1" offset="735432" size="98304"/>
			<output>
				<port id="0" precision="FP32">
					<dim>384</dim>
					<dim>64</dim>
					<dim>1</dim>
					<dim>1</dim>
				</port>
			</output>
		</layer>
		<layer id="145" name="Multiply_68170" type="Convolution" version="opset1">
			<data strides="1, 1" dilations="1, 1" pads_begin="0, 0" pads_end="0, 0" auto_pad="explicit"/>
			<rt_info>
				<attribute name="fused_names" version="0" value="450, 451, backbone.features.stage4.unit4.conv1.bn.bias, backbone.features.stage4.unit4.conv1.bn.running_mean, backbone.features.stage4.unit4.conv1.bn.running_var, backbone.features.stage4.unit4.conv1.bn.weight"/>
			</rt_info>
			<input>
				<port id="0" precision="FP32">
					<dim>1</dim>
					<dim>64</dim>
					<dim>26</dim>
					<dim>26</dim>
				</port>
				<port id="1" precision="FP32">
					<dim>384</dim>
					<dim>64</dim>
					<dim>1</dim>
					<dim>1</dim>
				</port>
			</input>
			<output>
				<port id="2" precision="FP32">
					<dim>1</dim>
					<dim>384</dim>
					<dim>26</dim>
					<dim>26</dim>
				</port>
			</output>
		</layer>
		<layer id="146" name="Constant_68175" type="Const" version="opset1">
			<data element_type="f32" shape="1, 384, 1, 1" offset="833736" size="1536"/>
			<output>
				<port id="0" precision="FP32">
					<dim>1</dim>
					<dim>384</dim>
					<dim>1</dim>
					<dim>1</dim>
				</port>
			</output>
		</layer>
		<layer id="147" name="451" type="Add" version="opset1">
			<data auto_broadcast="numpy"/>
			<rt_info>
				<attribute name="fused_names" version="0" value="451, backbone.features.stage4.unit4.conv1.bn.bias, backbone.features.stage4.unit4.conv1.bn.running_mean, backbone.features.stage4.unit4.conv1.bn.running_var, backbone.features.stage4.unit4.conv1.bn.weight"/>
			</rt_info>
			<input>
				<port id="0" precision="FP32">
					<dim>1</dim>
					<dim>384</dim>
					<dim>26</dim>
					<dim>26</dim>
				</port>
				<port id="1" precision="FP32">
					<dim>1</dim>
					<dim>384</dim>
					<dim>1</dim>
					<dim>1</dim>
				</port>
			</input>
			<output>
				<port id="2" precision="FP32" names="451">
					<dim>1</dim>
					<dim>384</dim>
					<dim>26</dim>
					<dim>26</dim>
				</port>
			</output>
		</layer>
		<layer id="148" name="452" type="Clamp" version="opset1">
			<data min="0" max="6"/>
			<rt_info>
				<attribute name="fused_names" version="0" value="452"/>
			</rt_info>
			<input>
				<port id="0" precision="FP32">
					<dim>1</dim>
					<dim>384</dim>
					<dim>26</dim>
					<dim>26</dim>
				</port>
			</input>
			<output>
				<port id="1" precision="FP32" names="452">
					<dim>1</dim>
					<dim>384</dim>
					<dim>26</dim>
					<dim>26</dim>
				</port>
			</output>
		</layer>
		<layer id="149" name="Multiply_68617" type="Const" version="opset1">
			<data element_type="f32" shape="384, 1, 1, 3, 3" offset="835272" size="13824"/>
			<output>
				<port id="0" precision="FP32">
					<dim>384</dim>
					<dim>1</dim>
					<dim>1</dim>
					<dim>3</dim>
					<dim>3</dim>
				</port>
			</output>
		</layer>
		<layer id="150" name="Multiply_68177" type="GroupConvolution" version="opset1">
			<data strides="1, 1" pads_begin="1, 1" pads_end="1, 1" dilations="1, 1" auto_pad="explicit"/>
			<rt_info>
				<attribute name="fused_names" version="0" value="454, backbone.features.stage4.unit4.conv2.bn.bias, backbone.features.stage4.unit4.conv2.bn.running_mean, backbone.features.stage4.unit4.conv2.bn.running_var, backbone.features.stage4.unit4.conv2.bn.weight"/>
			</rt_info>
			<input>
				<port id="0" precision="FP32">
					<dim>1</dim>
					<dim>384</dim>
					<dim>26</dim>
					<dim>26</dim>
				</port>
				<port id="1" precision="FP32">
					<dim>384</dim>
					<dim>1</dim>
					<dim>1</dim>
					<dim>3</dim>
					<dim>3</dim>
				</port>
			</input>
			<output>
				<port id="2" precision="FP32" names="453">
					<dim>1</dim>
					<dim>384</dim>
					<dim>26</dim>
					<dim>26</dim>
				</port>
			</output>
		</layer>
		<layer id="151" name="Constant_68182" type="Const" version="opset1">
			<data element_type="f32" shape="1, 384, 1, 1" offset="849096" size="1536"/>
			<output>
				<port id="0" precision="FP32">
					<dim>1</dim>
					<dim>384</dim>
					<dim>1</dim>
					<dim>1</dim>
				</port>
			</output>
		</layer>
		<layer id="152" name="454" type="Add" version="opset1">
			<data auto_broadcast="numpy"/>
			<rt_info>
				<attribute name="fused_names" version="0" value="454, backbone.features.stage4.unit4.conv2.bn.bias, backbone.features.stage4.unit4.conv2.bn.running_mean, backbone.features.stage4.unit4.conv2.bn.running_var, backbone.features.stage4.unit4.conv2.bn.weight"/>
			</rt_info>
			<input>
				<port id="0" precision="FP32">
					<dim>1</dim>
					<dim>384</dim>
					<dim>26</dim>
					<dim>26</dim>
				</port>
				<port id="1" precision="FP32">
					<dim>1</dim>
					<dim>384</dim>
					<dim>1</dim>
					<dim>1</dim>
				</port>
			</input>
			<output>
				<port id="2" precision="FP32" names="454">
					<dim>1</dim>
					<dim>384</dim>
					<dim>26</dim>
					<dim>26</dim>
				</port>
			</output>
		</layer>
		<layer id="153" name="455" type="Clamp" version="opset1">
			<data min="0" max="6"/>
			<rt_info>
				<attribute name="fused_names" version="0" value="455"/>
			</rt_info>
			<input>
				<port id="0" precision="FP32">
					<dim>1</dim>
					<dim>384</dim>
					<dim>26</dim>
					<dim>26</dim>
				</port>
			</input>
			<output>
				<port id="1" precision="FP32" names="455">
					<dim>1</dim>
					<dim>384</dim>
					<dim>26</dim>
					<dim>26</dim>
				</port>
			</output>
		</layer>
		<layer id="154" name="Multiply_68625" type="Const" version="opset1">
			<data element_type="f32" shape="64, 384, 1, 1" offset="850632" size="98304"/>
			<output>
				<port id="0" precision="FP32">
					<dim>64</dim>
					<dim>384</dim>
					<dim>1</dim>
					<dim>1</dim>
				</port>
			</output>
		</layer>
		<layer id="155" name="Multiply_68184" type="Convolution" version="opset1">
			<data strides="1, 1" dilations="1, 1" pads_begin="0, 0" pads_end="0, 0" auto_pad="explicit"/>
			<rt_info>
				<attribute name="fused_names" version="0" value="456, 457, backbone.features.stage4.unit4.conv3.bn.bias, backbone.features.stage4.unit4.conv3.bn.running_mean, backbone.features.stage4.unit4.conv3.bn.running_var, backbone.features.stage4.unit4.conv3.bn.weight"/>
			</rt_info>
			<input>
				<port id="0" precision="FP32">
					<dim>1</dim>
					<dim>384</dim>
					<dim>26</dim>
					<dim>26</dim>
				</port>
				<port id="1" precision="FP32">
					<dim>64</dim>
					<dim>384</dim>
					<dim>1</dim>
					<dim>1</dim>
				</port>
			</input>
			<output>
				<port id="2" precision="FP32">
					<dim>1</dim>
					<dim>64</dim>
					<dim>26</dim>
					<dim>26</dim>
				</port>
			</output>
		</layer>
		<layer id="156" name="Constant_68189" type="Const" version="opset1">
			<data element_type="f32" shape="1, 64, 1, 1" offset="948936" size="256"/>
			<output>
				<port id="0" precision="FP32">
					<dim>1</dim>
					<dim>64</dim>
					<dim>1</dim>
					<dim>1</dim>
				</port>
			</output>
		</layer>
		<layer id="157" name="457" type="Add" version="opset1">
			<data auto_broadcast="numpy"/>
			<rt_info>
				<attribute name="fused_names" version="0" value="457, backbone.features.stage4.unit4.conv3.bn.bias, backbone.features.stage4.unit4.conv3.bn.running_mean, backbone.features.stage4.unit4.conv3.bn.running_var, backbone.features.stage4.unit4.conv3.bn.weight"/>
			</rt_info>
			<input>
				<port id="0" precision="FP32">
					<dim>1</dim>
					<dim>64</dim>
					<dim>26</dim>
					<dim>26</dim>
				</port>
				<port id="1" precision="FP32">
					<dim>1</dim>
					<dim>64</dim>
					<dim>1</dim>
					<dim>1</dim>
				</port>
			</input>
			<output>
				<port id="2" precision="FP32" names="457">
					<dim>1</dim>
					<dim>64</dim>
					<dim>26</dim>
					<dim>26</dim>
				</port>
			</output>
		</layer>
		<layer id="158" name="458" type="Add" version="opset1">
			<data auto_broadcast="numpy"/>
			<rt_info>
				<attribute name="fused_names" version="0" value="458"/>
			</rt_info>
			<input>
				<port id="0" precision="FP32">
					<dim>1</dim>
					<dim>64</dim>
					<dim>26</dim>
					<dim>26</dim>
				</port>
				<port id="1" precision="FP32">
					<dim>1</dim>
					<dim>64</dim>
					<dim>26</dim>
					<dim>26</dim>
				</port>
			</input>
			<output>
				<port id="2" precision="FP32" names="458">
					<dim>1</dim>
					<dim>64</dim>
					<dim>26</dim>
					<dim>26</dim>
				</port>
			</output>
		</layer>
		<layer id="159" name="Multiply_68634" type="Const" version="opset1">
			<data element_type="f32" shape="384, 64, 1, 1" offset="949192" size="98304"/>
			<output>
				<port id="0" precision="FP32">
					<dim>384</dim>
					<dim>64</dim>
					<dim>1</dim>
					<dim>1</dim>
				</port>
			</output>
		</layer>
		<layer id="160" name="Multiply_68191" type="Convolution" version="opset1">
			<data strides="1, 1" dilations="1, 1" pads_begin="0, 0" pads_end="0, 0" auto_pad="explicit"/>
			<rt_info>
				<attribute name="fused_names" version="0" value="459, 460, backbone.features.stage4.unit5.conv1.bn.bias, backbone.features.stage4.unit5.conv1.bn.running_mean, backbone.features.stage4.unit5.conv1.bn.running_var, backbone.features.stage4.unit5.conv1.bn.weight"/>
			</rt_info>
			<input>
				<port id="0" precision="FP32">
					<dim>1</dim>
					<dim>64</dim>
					<dim>26</dim>
					<dim>26</dim>
				</port>
				<port id="1" precision="FP32">
					<dim>384</dim>
					<dim>64</dim>
					<dim>1</dim>
					<dim>1</dim>
				</port>
			</input>
			<output>
				<port id="2" precision="FP32">
					<dim>1</dim>
					<dim>384</dim>
					<dim>26</dim>
					<dim>26</dim>
				</port>
			</output>
		</layer>
		<layer id="161" name="Constant_68196" type="Const" version="opset1">
			<data element_type="f32" shape="1, 384, 1, 1" offset="1047496" size="1536"/>
			<output>
				<port id="0" precision="FP32">
					<dim>1</dim>
					<dim>384</dim>
					<dim>1</dim>
					<dim>1</dim>
				</port>
			</output>
		</layer>
		<layer id="162" name="460" type="Add" version="opset1">
			<data auto_broadcast="numpy"/>
			<rt_info>
				<attribute name="fused_names" version="0" value="460, backbone.features.stage4.unit5.conv1.bn.bias, backbone.features.stage4.unit5.conv1.bn.running_mean, backbone.features.stage4.unit5.conv1.bn.running_var, backbone.features.stage4.unit5.conv1.bn.weight"/>
			</rt_info>
			<input>
				<port id="0" precision="FP32">
					<dim>1</dim>
					<dim>384</dim>
					<dim>26</dim>
					<dim>26</dim>
				</port>
				<port id="1" precision="FP32">
					<dim>1</dim>
					<dim>384</dim>
					<dim>1</dim>
					<dim>1</dim>
				</port>
			</input>
			<output>
				<port id="2" precision="FP32" names="460">
					<dim>1</dim>
					<dim>384</dim>
					<dim>26</dim>
					<dim>26</dim>
				</port>
			</output>
		</layer>
		<layer id="163" name="461" type="Clamp" version="opset1">
			<data min="0" max="6"/>
			<rt_info>
				<attribute name="fused_names" version="0" value="461"/>
			</rt_info>
			<input>
				<port id="0" precision="FP32">
					<dim>1</dim>
					<dim>384</dim>
					<dim>26</dim>
					<dim>26</dim>
				</port>
			</input>
			<output>
				<port id="1" precision="FP32" names="461">
					<dim>1</dim>
					<dim>384</dim>
					<dim>26</dim>
					<dim>26</dim>
				</port>
			</output>
		</layer>
		<layer id="164" name="Multiply_68643" type="Const" version="opset1">
			<data element_type="f32" shape="384, 1, 1, 3, 3" offset="1049032" size="13824"/>
			<output>
				<port id="0" precision="FP32">
					<dim>384</dim>
					<dim>1</dim>
					<dim>1</dim>
					<dim>3</dim>
					<dim>3</dim>
				</port>
			</output>
		</layer>
		<layer id="165" name="Multiply_68198" type="GroupConvolution" version="opset1">
			<data strides="1, 1" pads_begin="1, 1" pads_end="1, 1" dilations="1, 1" auto_pad="explicit"/>
			<rt_info>
				<attribute name="fused_names" version="0" value="463, backbone.features.stage4.unit5.conv2.bn.bias, backbone.features.stage4.unit5.conv2.bn.running_mean, backbone.features.stage4.unit5.conv2.bn.running_var, backbone.features.stage4.unit5.conv2.bn.weight"/>
			</rt_info>
			<input>
				<port id="0" precision="FP32">
					<dim>1</dim>
					<dim>384</dim>
					<dim>26</dim>
					<dim>26</dim>
				</port>
				<port id="1" precision="FP32">
					<dim>384</dim>
					<dim>1</dim>
					<dim>1</dim>
					<dim>3</dim>
					<dim>3</dim>
				</port>
			</input>
			<output>
				<port id="2" precision="FP32" names="462">
					<dim>1</dim>
					<dim>384</dim>
					<dim>26</dim>
					<dim>26</dim>
				</port>
			</output>
		</layer>
		<layer id="166" name="Constant_68203" type="Const" version="opset1">
			<data element_type="f32" shape="1, 384, 1, 1" offset="1062856" size="1536"/>
			<output>
				<port id="0" precision="FP32">
					<dim>1</dim>
					<dim>384</dim>
					<dim>1</dim>
					<dim>1</dim>
				</port>
			</output>
		</layer>
		<layer id="167" name="463" type="Add" version="opset1">
			<data auto_broadcast="numpy"/>
			<rt_info>
				<attribute name="fused_names" version="0" value="463, backbone.features.stage4.unit5.conv2.bn.bias, backbone.features.stage4.unit5.conv2.bn.running_mean, backbone.features.stage4.unit5.conv2.bn.running_var, backbone.features.stage4.unit5.conv2.bn.weight"/>
			</rt_info>
			<input>
				<port id="0" precision="FP32">
					<dim>1</dim>
					<dim>384</dim>
					<dim>26</dim>
					<dim>26</dim>
				</port>
				<port id="1" precision="FP32">
					<dim>1</dim>
					<dim>384</dim>
					<dim>1</dim>
					<dim>1</dim>
				</port>
			</input>
			<output>
				<port id="2" precision="FP32" names="463">
					<dim>1</dim>
					<dim>384</dim>
					<dim>26</dim>
					<dim>26</dim>
				</port>
			</output>
		</layer>
		<layer id="168" name="464" type="Clamp" version="opset1">
			<data min="0" max="6"/>
			<rt_info>
				<attribute name="fused_names" version="0" value="464"/>
			</rt_info>
			<input>
				<port id="0" precision="FP32">
					<dim>1</dim>
					<dim>384</dim>
					<dim>26</dim>
					<dim>26</dim>
				</port>
			</input>
			<output>
				<port id="1" precision="FP32" names="464">
					<dim>1</dim>
					<dim>384</dim>
					<dim>26</dim>
					<dim>26</dim>
				</port>
			</output>
		</layer>
		<layer id="169" name="Multiply_68651" type="Const" version="opset1">
			<data element_type="f32" shape="96, 384, 1, 1" offset="1064392" size="147456"/>
			<output>
				<port id="0" precision="FP32">
					<dim>96</dim>
					<dim>384</dim>
					<dim>1</dim>
					<dim>1</dim>
				</port>
			</output>
		</layer>
		<layer id="170" name="Multiply_68205" type="Convolution" version="opset1">
			<data strides="1, 1" dilations="1, 1" pads_begin="0, 0" pads_end="0, 0" auto_pad="explicit"/>
			<rt_info>
				<attribute name="fused_names" version="0" value="465, 466, backbone.features.stage4.unit5.conv3.bn.bias, backbone.features.stage4.unit5.conv3.bn.running_mean, backbone.features.stage4.unit5.conv3.bn.running_var, backbone.features.stage4.unit5.conv3.bn.weight"/>
			</rt_info>
			<input>
				<port id="0" precision="FP32">
					<dim>1</dim>
					<dim>384</dim>
					<dim>26</dim>
					<dim>26</dim>
				</port>
				<port id="1" precision="FP32">
					<dim>96</dim>
					<dim>384</dim>
					<dim>1</dim>
					<dim>1</dim>
				</port>
			</input>
			<output>
				<port id="2" precision="FP32">
					<dim>1</dim>
					<dim>96</dim>
					<dim>26</dim>
					<dim>26</dim>
				</port>
			</output>
		</layer>
		<layer id="171" name="Constant_68210" type="Const" version="opset1">
			<data element_type="f32" shape="1, 96, 1, 1" offset="1211848" size="384"/>
			<output>
				<port id="0" precision="FP32">
					<dim>1</dim>
					<dim>96</dim>
					<dim>1</dim>
					<dim>1</dim>
				</port>
			</output>
		</layer>
		<layer id="172" name="466" type="Add" version="opset1">
			<data auto_broadcast="numpy"/>
			<rt_info>
				<attribute name="fused_names" version="0" value="466, backbone.features.stage4.unit5.conv3.bn.bias, backbone.features.stage4.unit5.conv3.bn.running_mean, backbone.features.stage4.unit5.conv3.bn.running_var, backbone.features.stage4.unit5.conv3.bn.weight"/>
			</rt_info>
			<input>
				<port id="0" precision="FP32">
					<dim>1</dim>
					<dim>96</dim>
					<dim>26</dim>
					<dim>26</dim>
				</port>
				<port id="1" precision="FP32">
					<dim>1</dim>
					<dim>96</dim>
					<dim>1</dim>
					<dim>1</dim>
				</port>
			</input>
			<output>
				<port id="2" precision="FP32" names="466">
					<dim>1</dim>
					<dim>96</dim>
					<dim>26</dim>
					<dim>26</dim>
				</port>
			</output>
		</layer>
		<layer id="173" name="Multiply_68660" type="Const" version="opset1">
			<data element_type="f32" shape="576, 96, 1, 1" offset="1212232" size="221184"/>
			<output>
				<port id="0" precision="FP32">
					<dim>576</dim>
					<dim>96</dim>
					<dim>1</dim>
					<dim>1</dim>
				</port>
			</output>
		</layer>
		<layer id="174" name="Multiply_68212" type="Convolution" version="opset1">
			<data strides="1, 1" dilations="1, 1" pads_begin="0, 0" pads_end="0, 0" auto_pad="explicit"/>
			<rt_info>
				<attribute name="fused_names" version="0" value="467, 468, backbone.features.stage4.unit6.conv1.bn.bias, backbone.features.stage4.unit6.conv1.bn.running_mean, backbone.features.stage4.unit6.conv1.bn.running_var, backbone.features.stage4.unit6.conv1.bn.weight"/>
			</rt_info>
			<input>
				<port id="0" precision="FP32">
					<dim>1</dim>
					<dim>96</dim>
					<dim>26</dim>
					<dim>26</dim>
				</port>
				<port id="1" precision="FP32">
					<dim>576</dim>
					<dim>96</dim>
					<dim>1</dim>
					<dim>1</dim>
				</port>
			</input>
			<output>
				<port id="2" precision="FP32">
					<dim>1</dim>
					<dim>576</dim>
					<dim>26</dim>
					<dim>26</dim>
				</port>
			</output>
		</layer>
		<layer id="175" name="Constant_68217" type="Const" version="opset1">
			<data element_type="f32" shape="1, 576, 1, 1" offset="1433416" size="2304"/>
			<output>
				<port id="0" precision="FP32">
					<dim>1</dim>
					<dim>576</dim>
					<dim>1</dim>
					<dim>1</dim>
				</port>
			</output>
		</layer>
		<layer id="176" name="468" type="Add" version="opset1">
			<data auto_broadcast="numpy"/>
			<rt_info>
				<attribute name="fused_names" version="0" value="468, backbone.features.stage4.unit6.conv1.bn.bias, backbone.features.stage4.unit6.conv1.bn.running_mean, backbone.features.stage4.unit6.conv1.bn.running_var, backbone.features.stage4.unit6.conv1.bn.weight"/>
			</rt_info>
			<input>
				<port id="0" precision="FP32">
					<dim>1</dim>
					<dim>576</dim>
					<dim>26</dim>
					<dim>26</dim>
				</port>
				<port id="1" precision="FP32">
					<dim>1</dim>
					<dim>576</dim>
					<dim>1</dim>
					<dim>1</dim>
				</port>
			</input>
			<output>
				<port id="2" precision="FP32" names="468">
					<dim>1</dim>
					<dim>576</dim>
					<dim>26</dim>
					<dim>26</dim>
				</port>
			</output>
		</layer>
		<layer id="177" name="469" type="Clamp" version="opset1">
			<data min="0" max="6"/>
			<rt_info>
				<attribute name="fused_names" version="0" value="469"/>
			</rt_info>
			<input>
				<port id="0" precision="FP32">
					<dim>1</dim>
					<dim>576</dim>
					<dim>26</dim>
					<dim>26</dim>
				</port>
			</input>
			<output>
				<port id="1" precision="FP32" names="469">
					<dim>1</dim>
					<dim>576</dim>
					<dim>26</dim>
					<dim>26</dim>
				</port>
			</output>
		</layer>
		<layer id="178" name="Multiply_68669" type="Const" version="opset1">
			<data element_type="f32" shape="576, 1, 1, 3, 3" offset="1435720" size="20736"/>
			<output>
				<port id="0" precision="FP32">
					<dim>576</dim>
					<dim>1</dim>
					<dim>1</dim>
					<dim>3</dim>
					<dim>3</dim>
				</port>
			</output>
		</layer>
		<layer id="179" name="Multiply_68219" type="GroupConvolution" version="opset1">
			<data strides="1, 1" pads_begin="1, 1" pads_end="1, 1" dilations="1, 1" auto_pad="explicit"/>
			<rt_info>
				<attribute name="fused_names" version="0" value="471, backbone.features.stage4.unit6.conv2.bn.bias, backbone.features.stage4.unit6.conv2.bn.running_mean, backbone.features.stage4.unit6.conv2.bn.running_var, backbone.features.stage4.unit6.conv2.bn.weight"/>
			</rt_info>
			<input>
				<port id="0" precision="FP32">
					<dim>1</dim>
					<dim>576</dim>
					<dim>26</dim>
					<dim>26</dim>
				</port>
				<port id="1" precision="FP32">
					<dim>576</dim>
					<dim>1</dim>
					<dim>1</dim>
					<dim>3</dim>
					<dim>3</dim>
				</port>
			</input>
			<output>
				<port id="2" precision="FP32" names="470">
					<dim>1</dim>
					<dim>576</dim>
					<dim>26</dim>
					<dim>26</dim>
				</port>
			</output>
		</layer>
		<layer id="180" name="Constant_68224" type="Const" version="opset1">
			<data element_type="f32" shape="1, 576, 1, 1" offset="1456456" size="2304"/>
			<output>
				<port id="0" precision="FP32">
					<dim>1</dim>
					<dim>576</dim>
					<dim>1</dim>
					<dim>1</dim>
				</port>
			</output>
		</layer>
		<layer id="181" name="471" type="Add" version="opset1">
			<data auto_broadcast="numpy"/>
			<rt_info>
				<attribute name="fused_names" version="0" value="471, backbone.features.stage4.unit6.conv2.bn.bias, backbone.features.stage4.unit6.conv2.bn.running_mean, backbone.features.stage4.unit6.conv2.bn.running_var, backbone.features.stage4.unit6.conv2.bn.weight"/>
			</rt_info>
			<input>
				<port id="0" precision="FP32">
					<dim>1</dim>
					<dim>576</dim>
					<dim>26</dim>
					<dim>26</dim>
				</port>
				<port id="1" precision="FP32">
					<dim>1</dim>
					<dim>576</dim>
					<dim>1</dim>
					<dim>1</dim>
				</port>
			</input>
			<output>
				<port id="2" precision="FP32" names="471">
					<dim>1</dim>
					<dim>576</dim>
					<dim>26</dim>
					<dim>26</dim>
				</port>
			</output>
		</layer>
		<layer id="182" name="472" type="Clamp" version="opset1">
			<data min="0" max="6"/>
			<rt_info>
				<attribute name="fused_names" version="0" value="472"/>
			</rt_info>
			<input>
				<port id="0" precision="FP32">
					<dim>1</dim>
					<dim>576</dim>
					<dim>26</dim>
					<dim>26</dim>
				</port>
			</input>
			<output>
				<port id="1" precision="FP32" names="472">
					<dim>1</dim>
					<dim>576</dim>
					<dim>26</dim>
					<dim>26</dim>
				</port>
			</output>
		</layer>
		<layer id="183" name="Multiply_68677" type="Const" version="opset1">
			<data element_type="f32" shape="96, 576, 1, 1" offset="1458760" size="221184"/>
			<output>
				<port id="0" precision="FP32">
					<dim>96</dim>
					<dim>576</dim>
					<dim>1</dim>
					<dim>1</dim>
				</port>
			</output>
		</layer>
		<layer id="184" name="Multiply_68226" type="Convolution" version="opset1">
			<data strides="1, 1" dilations="1, 1" pads_begin="0, 0" pads_end="0, 0" auto_pad="explicit"/>
			<rt_info>
				<attribute name="fused_names" version="0" value="473, 474, backbone.features.stage4.unit6.conv3.bn.bias, backbone.features.stage4.unit6.conv3.bn.running_mean, backbone.features.stage4.unit6.conv3.bn.running_var, backbone.features.stage4.unit6.conv3.bn.weight"/>
			</rt_info>
			<input>
				<port id="0" precision="FP32">
					<dim>1</dim>
					<dim>576</dim>
					<dim>26</dim>
					<dim>26</dim>
				</port>
				<port id="1" precision="FP32">
					<dim>96</dim>
					<dim>576</dim>
					<dim>1</dim>
					<dim>1</dim>
				</port>
			</input>
			<output>
				<port id="2" precision="FP32">
					<dim>1</dim>
					<dim>96</dim>
					<dim>26</dim>
					<dim>26</dim>
				</port>
			</output>
		</layer>
		<layer id="185" name="Constant_68231" type="Const" version="opset1">
			<data element_type="f32" shape="1, 96, 1, 1" offset="1679944" size="384"/>
			<output>
				<port id="0" precision="FP32">
					<dim>1</dim>
					<dim>96</dim>
					<dim>1</dim>
					<dim>1</dim>
				</port>
			</output>
		</layer>
		<layer id="186" name="474" type="Add" version="opset1">
			<data auto_broadcast="numpy"/>
			<rt_info>
				<attribute name="fused_names" version="0" value="474, backbone.features.stage4.unit6.conv3.bn.bias, backbone.features.stage4.unit6.conv3.bn.running_mean, backbone.features.stage4.unit6.conv3.bn.running_var, backbone.features.stage4.unit6.conv3.bn.weight"/>
			</rt_info>
			<input>
				<port id="0" precision="FP32">
					<dim>1</dim>
					<dim>96</dim>
					<dim>26</dim>
					<dim>26</dim>
				</port>
				<port id="1" precision="FP32">
					<dim>1</dim>
					<dim>96</dim>
					<dim>1</dim>
					<dim>1</dim>
				</port>
			</input>
			<output>
				<port id="2" precision="FP32" names="474">
					<dim>1</dim>
					<dim>96</dim>
					<dim>26</dim>
					<dim>26</dim>
				</port>
			</output>
		</layer>
		<layer id="187" name="475" type="Add" version="opset1">
			<data auto_broadcast="numpy"/>
			<rt_info>
				<attribute name="fused_names" version="0" value="475"/>
			</rt_info>
			<input>
				<port id="0" precision="FP32">
					<dim>1</dim>
					<dim>96</dim>
					<dim>26</dim>
					<dim>26</dim>
				</port>
				<port id="1" precision="FP32">
					<dim>1</dim>
					<dim>96</dim>
					<dim>26</dim>
					<dim>26</dim>
				</port>
			</input>
			<output>
				<port id="2" precision="FP32" names="475">
					<dim>1</dim>
					<dim>96</dim>
					<dim>26</dim>
					<dim>26</dim>
				</port>
			</output>
		</layer>
		<layer id="188" name="Multiply_68686" type="Const" version="opset1">
			<data element_type="f32" shape="576, 96, 1, 1" offset="1680328" size="221184"/>
			<output>
				<port id="0" precision="FP32">
					<dim>576</dim>
					<dim>96</dim>
					<dim>1</dim>
					<dim>1</dim>
				</port>
			</output>
		</layer>
		<layer id="189" name="Multiply_68233" type="Convolution" version="opset1">
			<data strides="1, 1" dilations="1, 1" pads_begin="0, 0" pads_end="0, 0" auto_pad="explicit"/>
			<rt_info>
				<attribute name="fused_names" version="0" value="476, 477, backbone.features.stage4.unit7.conv1.bn.bias, backbone.features.stage4.unit7.conv1.bn.running_mean, backbone.features.stage4.unit7.conv1.bn.running_var, backbone.features.stage4.unit7.conv1.bn.weight"/>
			</rt_info>
			<input>
				<port id="0" precision="FP32">
					<dim>1</dim>
					<dim>96</dim>
					<dim>26</dim>
					<dim>26</dim>
				</port>
				<port id="1" precision="FP32">
					<dim>576</dim>
					<dim>96</dim>
					<dim>1</dim>
					<dim>1</dim>
				</port>
			</input>
			<output>
				<port id="2" precision="FP32">
					<dim>1</dim>
					<dim>576</dim>
					<dim>26</dim>
					<dim>26</dim>
				</port>
			</output>
		</layer>
		<layer id="190" name="Constant_68238" type="Const" version="opset1">
			<data element_type="f32" shape="1, 576, 1, 1" offset="1901512" size="2304"/>
			<output>
				<port id="0" precision="FP32">
					<dim>1</dim>
					<dim>576</dim>
					<dim>1</dim>
					<dim>1</dim>
				</port>
			</output>
		</layer>
		<layer id="191" name="477" type="Add" version="opset1">
			<data auto_broadcast="numpy"/>
			<rt_info>
				<attribute name="fused_names" version="0" value="477, backbone.features.stage4.unit7.conv1.bn.bias, backbone.features.stage4.unit7.conv1.bn.running_mean, backbone.features.stage4.unit7.conv1.bn.running_var, backbone.features.stage4.unit7.conv1.bn.weight"/>
			</rt_info>
			<input>
				<port id="0" precision="FP32">
					<dim>1</dim>
					<dim>576</dim>
					<dim>26</dim>
					<dim>26</dim>
				</port>
				<port id="1" precision="FP32">
					<dim>1</dim>
					<dim>576</dim>
					<dim>1</dim>
					<dim>1</dim>
				</port>
			</input>
			<output>
				<port id="2" precision="FP32" names="477">
					<dim>1</dim>
					<dim>576</dim>
					<dim>26</dim>
					<dim>26</dim>
				</port>
			</output>
		</layer>
		<layer id="192" name="478" type="Clamp" version="opset1">
			<data min="0" max="6"/>
			<rt_info>
				<attribute name="fused_names" version="0" value="478"/>
			</rt_info>
			<input>
				<port id="0" precision="FP32">
					<dim>1</dim>
					<dim>576</dim>
					<dim>26</dim>
					<dim>26</dim>
				</port>
			</input>
			<output>
				<port id="1" precision="FP32" names="478">
					<dim>1</dim>
					<dim>576</dim>
					<dim>26</dim>
					<dim>26</dim>
				</port>
			</output>
		</layer>
		<layer id="193" name="Multiply_68695" type="Const" version="opset1">
			<data element_type="f32" shape="576, 1, 1, 3, 3" offset="1903816" size="20736"/>
			<output>
				<port id="0" precision="FP32">
					<dim>576</dim>
					<dim>1</dim>
					<dim>1</dim>
					<dim>3</dim>
					<dim>3</dim>
				</port>
			</output>
		</layer>
		<layer id="194" name="Multiply_68240" type="GroupConvolution" version="opset1">
			<data strides="1, 1" pads_begin="1, 1" pads_end="1, 1" dilations="1, 1" auto_pad="explicit"/>
			<rt_info>
				<attribute name="fused_names" version="0" value="480, backbone.features.stage4.unit7.conv2.bn.bias, backbone.features.stage4.unit7.conv2.bn.running_mean, backbone.features.stage4.unit7.conv2.bn.running_var, backbone.features.stage4.unit7.conv2.bn.weight"/>
			</rt_info>
			<input>
				<port id="0" precision="FP32">
					<dim>1</dim>
					<dim>576</dim>
					<dim>26</dim>
					<dim>26</dim>
				</port>
				<port id="1" precision="FP32">
					<dim>576</dim>
					<dim>1</dim>
					<dim>1</dim>
					<dim>3</dim>
					<dim>3</dim>
				</port>
			</input>
			<output>
				<port id="2" precision="FP32" names="479">
					<dim>1</dim>
					<dim>576</dim>
					<dim>26</dim>
					<dim>26</dim>
				</port>
			</output>
		</layer>
		<layer id="195" name="Constant_68245" type="Const" version="opset1">
			<data element_type="f32" shape="1, 576, 1, 1" offset="1924552" size="2304"/>
			<output>
				<port id="0" precision="FP32">
					<dim>1</dim>
					<dim>576</dim>
					<dim>1</dim>
					<dim>1</dim>
				</port>
			</output>
		</layer>
		<layer id="196" name="480" type="Add" version="opset1">
			<data auto_broadcast="numpy"/>
			<rt_info>
				<attribute name="fused_names" version="0" value="480, backbone.features.stage4.unit7.conv2.bn.bias, backbone.features.stage4.unit7.conv2.bn.running_mean, backbone.features.stage4.unit7.conv2.bn.running_var, backbone.features.stage4.unit7.conv2.bn.weight"/>
			</rt_info>
			<input>
				<port id="0" precision="FP32">
					<dim>1</dim>
					<dim>576</dim>
					<dim>26</dim>
					<dim>26</dim>
				</port>
				<port id="1" precision="FP32">
					<dim>1</dim>
					<dim>576</dim>
					<dim>1</dim>
					<dim>1</dim>
				</port>
			</input>
			<output>
				<port id="2" precision="FP32" names="480">
					<dim>1</dim>
					<dim>576</dim>
					<dim>26</dim>
					<dim>26</dim>
				</port>
			</output>
		</layer>
		<layer id="197" name="481" type="Clamp" version="opset1">
			<data min="0" max="6"/>
			<rt_info>
				<attribute name="fused_names" version="0" value="481"/>
			</rt_info>
			<input>
				<port id="0" precision="FP32">
					<dim>1</dim>
					<dim>576</dim>
					<dim>26</dim>
					<dim>26</dim>
				</port>
			</input>
			<output>
				<port id="1" precision="FP32" names="481">
					<dim>1</dim>
					<dim>576</dim>
					<dim>26</dim>
					<dim>26</dim>
				</port>
			</output>
		</layer>
		<layer id="198" name="Multiply_68703" type="Const" version="opset1">
			<data element_type="f32" shape="96, 576, 1, 1" offset="1926856" size="221184"/>
			<output>
				<port id="0" precision="FP32">
					<dim>96</dim>
					<dim>576</dim>
					<dim>1</dim>
					<dim>1</dim>
				</port>
			</output>
		</layer>
		<layer id="199" name="Multiply_68247" type="Convolution" version="opset1">
			<data strides="1, 1" dilations="1, 1" pads_begin="0, 0" pads_end="0, 0" auto_pad="explicit"/>
			<rt_info>
				<attribute name="fused_names" version="0" value="482, 483, backbone.features.stage4.unit7.conv3.bn.bias, backbone.features.stage4.unit7.conv3.bn.running_mean, backbone.features.stage4.unit7.conv3.bn.running_var, backbone.features.stage4.unit7.conv3.bn.weight"/>
			</rt_info>
			<input>
				<port id="0" precision="FP32">
					<dim>1</dim>
					<dim>576</dim>
					<dim>26</dim>
					<dim>26</dim>
				</port>
				<port id="1" precision="FP32">
					<dim>96</dim>
					<dim>576</dim>
					<dim>1</dim>
					<dim>1</dim>
				</port>
			</input>
			<output>
				<port id="2" precision="FP32">
					<dim>1</dim>
					<dim>96</dim>
					<dim>26</dim>
					<dim>26</dim>
				</port>
			</output>
		</layer>
		<layer id="200" name="Constant_68252" type="Const" version="opset1">
			<data element_type="f32" shape="1, 96, 1, 1" offset="2148040" size="384"/>
			<output>
				<port id="0" precision="FP32">
					<dim>1</dim>
					<dim>96</dim>
					<dim>1</dim>
					<dim>1</dim>
				</port>
			</output>
		</layer>
		<layer id="201" name="483" type="Add" version="opset1">
			<data auto_broadcast="numpy"/>
			<rt_info>
				<attribute name="fused_names" version="0" value="483, backbone.features.stage4.unit7.conv3.bn.bias, backbone.features.stage4.unit7.conv3.bn.running_mean, backbone.features.stage4.unit7.conv3.bn.running_var, backbone.features.stage4.unit7.conv3.bn.weight"/>
			</rt_info>
			<input>
				<port id="0" precision="FP32">
					<dim>1</dim>
					<dim>96</dim>
					<dim>26</dim>
					<dim>26</dim>
				</port>
				<port id="1" precision="FP32">
					<dim>1</dim>
					<dim>96</dim>
					<dim>1</dim>
					<dim>1</dim>
				</port>
			</input>
			<output>
				<port id="2" precision="FP32" names="483">
					<dim>1</dim>
					<dim>96</dim>
					<dim>26</dim>
					<dim>26</dim>
				</port>
			</output>
		</layer>
		<layer id="202" name="484" type="Add" version="opset1">
			<data auto_broadcast="numpy"/>
			<rt_info>
				<attribute name="fused_names" version="0" value="484"/>
			</rt_info>
			<input>
				<port id="0" precision="FP32">
					<dim>1</dim>
					<dim>96</dim>
					<dim>26</dim>
					<dim>26</dim>
				</port>
				<port id="1" precision="FP32">
					<dim>1</dim>
					<dim>96</dim>
					<dim>26</dim>
					<dim>26</dim>
				</port>
			</input>
			<output>
				<port id="2" precision="FP32" names="484">
					<dim>1</dim>
					<dim>96</dim>
					<dim>26</dim>
					<dim>26</dim>
				</port>
			</output>
		</layer>
		<layer id="203" name="neck.lateral_convs.1.conv.weight" type="Const" version="opset1">
			<data element_type="f32" shape="48, 96, 1, 1" offset="2148424" size="18432"/>
			<rt_info>
				<attribute name="fused_names" version="0" value="neck.lateral_convs.1.conv.weight"/>
			</rt_info>
			<output>
				<port id="0" precision="FP32" names="neck.lateral_convs.1.conv.weight">
					<dim>48</dim>
					<dim>96</dim>
					<dim>1</dim>
					<dim>1</dim>
				</port>
			</output>
		</layer>
		<layer id="204" name="Convolution_2062" type="Convolution" version="opset1">
			<data strides="1, 1" dilations="1, 1" pads_begin="0, 0" pads_end="0, 0" auto_pad="explicit"/>
			<rt_info>
				<attribute name="fused_names" version="0" value="Convolution_2062"/>
			</rt_info>
			<input>
				<port id="0" precision="FP32">
					<dim>1</dim>
					<dim>96</dim>
					<dim>26</dim>
					<dim>26</dim>
				</port>
				<port id="1" precision="FP32">
					<dim>48</dim>
					<dim>96</dim>
					<dim>1</dim>
					<dim>1</dim>
				</port>
			</input>
			<output>
				<port id="2" precision="FP32">
					<dim>1</dim>
					<dim>48</dim>
					<dim>26</dim>
					<dim>26</dim>
				</port>
			</output>
		</layer>
		<layer id="205" name="Reshape_2082" type="Const" version="opset1">
			<data element_type="f32" shape="1, 48, 1, 1" offset="2166856" size="192"/>
			<output>
				<port id="0" precision="FP32">
					<dim>1</dim>
					<dim>48</dim>
					<dim>1</dim>
					<dim>1</dim>
				</port>
			</output>
		</layer>
		<layer id="206" name="520" type="Add" version="opset1">
			<data auto_broadcast="numpy"/>
			<rt_info>
				<attribute name="fused_names" version="0" value="520, Concat_2081, Reshape_2082"/>
			</rt_info>
			<input>
				<port id="0" precision="FP32">
					<dim>1</dim>
					<dim>48</dim>
					<dim>26</dim>
					<dim>26</dim>
				</port>
				<port id="1" precision="FP32">
					<dim>1</dim>
					<dim>48</dim>
					<dim>1</dim>
					<dim>1</dim>
				</port>
			</input>
			<output>
				<port id="2" precision="FP32" names="520">
					<dim>1</dim>
					<dim>48</dim>
					<dim>26</dim>
					<dim>26</dim>
				</port>
			</output>
		</layer>
		<layer id="207" name="Multiply_68712" type="Const" version="opset1">
			<data element_type="f32" shape="576, 96, 1, 1" offset="2167048" size="221184"/>
			<output>
				<port id="0" precision="FP32">
					<dim>576</dim>
					<dim>96</dim>
					<dim>1</dim>
					<dim>1</dim>
				</port>
			</output>
		</layer>
		<layer id="208" name="Multiply_68254" type="Convolution" version="opset1">
			<data strides="1, 1" dilations="1, 1" pads_begin="0, 0" pads_end="0, 0" auto_pad="explicit"/>
			<rt_info>
				<attribute name="fused_names" version="0" value="485, 486, backbone.features.stage5.unit1.conv1.bn.bias, backbone.features.stage5.unit1.conv1.bn.running_mean, backbone.features.stage5.unit1.conv1.bn.running_var, backbone.features.stage5.unit1.conv1.bn.weight"/>
			</rt_info>
			<input>
				<port id="0" precision="FP32">
					<dim>1</dim>
					<dim>96</dim>
					<dim>26</dim>
					<dim>26</dim>
				</port>
				<port id="1" precision="FP32">
					<dim>576</dim>
					<dim>96</dim>
					<dim>1</dim>
					<dim>1</dim>
				</port>
			</input>
			<output>
				<port id="2" precision="FP32">
					<dim>1</dim>
					<dim>576</dim>
					<dim>26</dim>
					<dim>26</dim>
				</port>
			</output>
		</layer>
		<layer id="209" name="Constant_68259" type="Const" version="opset1">
			<data element_type="f32" shape="1, 576, 1, 1" offset="2388232" size="2304"/>
			<output>
				<port id="0" precision="FP32">
					<dim>1</dim>
					<dim>576</dim>
					<dim>1</dim>
					<dim>1</dim>
				</port>
			</output>
		</layer>
		<layer id="210" name="486" type="Add" version="opset1">
			<data auto_broadcast="numpy"/>
			<rt_info>
				<attribute name="fused_names" version="0" value="486, backbone.features.stage5.unit1.conv1.bn.bias, backbone.features.stage5.unit1.conv1.bn.running_mean, backbone.features.stage5.unit1.conv1.bn.running_var, backbone.features.stage5.unit1.conv1.bn.weight"/>
			</rt_info>
			<input>
				<port id="0" precision="FP32">
					<dim>1</dim>
					<dim>576</dim>
					<dim>26</dim>
					<dim>26</dim>
				</port>
				<port id="1" precision="FP32">
					<dim>1</dim>
					<dim>576</dim>
					<dim>1</dim>
					<dim>1</dim>
				</port>
			</input>
			<output>
				<port id="2" precision="FP32" names="486">
					<dim>1</dim>
					<dim>576</dim>
					<dim>26</dim>
					<dim>26</dim>
				</port>
			</output>
		</layer>
		<layer id="211" name="487" type="Clamp" version="opset1">
			<data min="0" max="6"/>
			<rt_info>
				<attribute name="fused_names" version="0" value="487"/>
			</rt_info>
			<input>
				<port id="0" precision="FP32">
					<dim>1</dim>
					<dim>576</dim>
					<dim>26</dim>
					<dim>26</dim>
				</port>
			</input>
			<output>
				<port id="1" precision="FP32" names="487">
					<dim>1</dim>
					<dim>576</dim>
					<dim>26</dim>
					<dim>26</dim>
				</port>
			</output>
		</layer>
		<layer id="212" name="Multiply_68721" type="Const" version="opset1">
			<data element_type="f32" shape="576, 1, 1, 3, 3" offset="2390536" size="20736"/>
			<output>
				<port id="0" precision="FP32">
					<dim>576</dim>
					<dim>1</dim>
					<dim>1</dim>
					<dim>3</dim>
					<dim>3</dim>
				</port>
			</output>
		</layer>
		<layer id="213" name="Multiply_68261" type="GroupConvolution" version="opset1">
			<data strides="2, 2" pads_begin="1, 1" pads_end="1, 1" dilations="1, 1" auto_pad="explicit"/>
			<rt_info>
				<attribute name="fused_names" version="0" value="489, backbone.features.stage5.unit1.conv2.bn.bias, backbone.features.stage5.unit1.conv2.bn.running_mean, backbone.features.stage5.unit1.conv2.bn.running_var, backbone.features.stage5.unit1.conv2.bn.weight"/>
			</rt_info>
			<input>
				<port id="0" precision="FP32">
					<dim>1</dim>
					<dim>576</dim>
					<dim>26</dim>
					<dim>26</dim>
				</port>
				<port id="1" precision="FP32">
					<dim>576</dim>
					<dim>1</dim>
					<dim>1</dim>
					<dim>3</dim>
					<dim>3</dim>
				</port>
			</input>
			<output>
				<port id="2" precision="FP32" names="488">
					<dim>1</dim>
					<dim>576</dim>
					<dim>13</dim>
					<dim>13</dim>
				</port>
			</output>
		</layer>
		<layer id="214" name="Constant_68266" type="Const" version="opset1">
			<data element_type="f32" shape="1, 576, 1, 1" offset="2411272" size="2304"/>
			<output>
				<port id="0" precision="FP32">
					<dim>1</dim>
					<dim>576</dim>
					<dim>1</dim>
					<dim>1</dim>
				</port>
			</output>
		</layer>
		<layer id="215" name="489" type="Add" version="opset1">
			<data auto_broadcast="numpy"/>
			<rt_info>
				<attribute name="fused_names" version="0" value="489, backbone.features.stage5.unit1.conv2.bn.bias, backbone.features.stage5.unit1.conv2.bn.running_mean, backbone.features.stage5.unit1.conv2.bn.running_var, backbone.features.stage5.unit1.conv2.bn.weight"/>
			</rt_info>
			<input>
				<port id="0" precision="FP32">
					<dim>1</dim>
					<dim>576</dim>
					<dim>13</dim>
					<dim>13</dim>
				</port>
				<port id="1" precision="FP32">
					<dim>1</dim>
					<dim>576</dim>
					<dim>1</dim>
					<dim>1</dim>
				</port>
			</input>
			<output>
				<port id="2" precision="FP32" names="489">
					<dim>1</dim>
					<dim>576</dim>
					<dim>13</dim>
					<dim>13</dim>
				</port>
			</output>
		</layer>
		<layer id="216" name="490" type="Clamp" version="opset1">
			<data min="0" max="6"/>
			<rt_info>
				<attribute name="fused_names" version="0" value="490"/>
			</rt_info>
			<input>
				<port id="0" precision="FP32">
					<dim>1</dim>
					<dim>576</dim>
					<dim>13</dim>
					<dim>13</dim>
				</port>
			</input>
			<output>
				<port id="1" precision="FP32" names="490">
					<dim>1</dim>
					<dim>576</dim>
					<dim>13</dim>
					<dim>13</dim>
				</port>
			</output>
		</layer>
		<layer id="217" name="Multiply_68729" type="Const" version="opset1">
			<data element_type="f32" shape="160, 576, 1, 1" offset="2413576" size="368640"/>
			<output>
				<port id="0" precision="FP32">
					<dim>160</dim>
					<dim>576</dim>
					<dim>1</dim>
					<dim>1</dim>
				</port>
			</output>
		</layer>
		<layer id="218" name="Multiply_68268" type="Convolution" version="opset1">
			<data strides="1, 1" dilations="1, 1" pads_begin="0, 0" pads_end="0, 0" auto_pad="explicit"/>
			<rt_info>
				<attribute name="fused_names" version="0" value="491, 492, backbone.features.stage5.unit1.conv3.bn.bias, backbone.features.stage5.unit1.conv3.bn.running_mean, backbone.features.stage5.unit1.conv3.bn.running_var, backbone.features.stage5.unit1.conv3.bn.weight"/>
			</rt_info>
			<input>
				<port id="0" precision="FP32">
					<dim>1</dim>
					<dim>576</dim>
					<dim>13</dim>
					<dim>13</dim>
				</port>
				<port id="1" precision="FP32">
					<dim>160</dim>
					<dim>576</dim>
					<dim>1</dim>
					<dim>1</dim>
				</port>
			</input>
			<output>
				<port id="2" precision="FP32">
					<dim>1</dim>
					<dim>160</dim>
					<dim>13</dim>
					<dim>13</dim>
				</port>
			</output>
		</layer>
		<layer id="219" name="Constant_68273" type="Const" version="opset1">
			<data element_type="f32" shape="1, 160, 1, 1" offset="2782216" size="640"/>
			<output>
				<port id="0" precision="FP32">
					<dim>1</dim>
					<dim>160</dim>
					<dim>1</dim>
					<dim>1</dim>
				</port>
			</output>
		</layer>
		<layer id="220" name="492" type="Add" version="opset1">
			<data auto_broadcast="numpy"/>
			<rt_info>
				<attribute name="fused_names" version="0" value="492, backbone.features.stage5.unit1.conv3.bn.bias, backbone.features.stage5.unit1.conv3.bn.running_mean, backbone.features.stage5.unit1.conv3.bn.running_var, backbone.features.stage5.unit1.conv3.bn.weight"/>
			</rt_info>
			<input>
				<port id="0" precision="FP32">
					<dim>1</dim>
					<dim>160</dim>
					<dim>13</dim>
					<dim>13</dim>
				</port>
				<port id="1" precision="FP32">
					<dim>1</dim>
					<dim>160</dim>
					<dim>1</dim>
					<dim>1</dim>
				</port>
			</input>
			<output>
				<port id="2" precision="FP32" names="492">
					<dim>1</dim>
					<dim>160</dim>
					<dim>13</dim>
					<dim>13</dim>
				</port>
			</output>
		</layer>
		<layer id="221" name="Multiply_68738" type="Const" version="opset1">
			<data element_type="f32" shape="960, 160, 1, 1" offset="2782856" size="614400"/>
			<output>
				<port id="0" precision="FP32">
					<dim>960</dim>
					<dim>160</dim>
					<dim>1</dim>
					<dim>1</dim>
				</port>
			</output>
		</layer>
		<layer id="222" name="Multiply_68275" type="Convolution" version="opset1">
			<data strides="1, 1" dilations="1, 1" pads_begin="0, 0" pads_end="0, 0" auto_pad="explicit"/>
			<rt_info>
				<attribute name="fused_names" version="0" value="493, 494, backbone.features.stage5.unit2.conv1.bn.bias, backbone.features.stage5.unit2.conv1.bn.running_mean, backbone.features.stage5.unit2.conv1.bn.running_var, backbone.features.stage5.unit2.conv1.bn.weight"/>
			</rt_info>
			<input>
				<port id="0" precision="FP32">
					<dim>1</dim>
					<dim>160</dim>
					<dim>13</dim>
					<dim>13</dim>
				</port>
				<port id="1" precision="FP32">
					<dim>960</dim>
					<dim>160</dim>
					<dim>1</dim>
					<dim>1</dim>
				</port>
			</input>
			<output>
				<port id="2" precision="FP32">
					<dim>1</dim>
					<dim>960</dim>
					<dim>13</dim>
					<dim>13</dim>
				</port>
			</output>
		</layer>
		<layer id="223" name="Constant_68280" type="Const" version="opset1">
			<data element_type="f32" shape="1, 960, 1, 1" offset="3397256" size="3840"/>
			<output>
				<port id="0" precision="FP32">
					<dim>1</dim>
					<dim>960</dim>
					<dim>1</dim>
					<dim>1</dim>
				</port>
			</output>
		</layer>
		<layer id="224" name="494" type="Add" version="opset1">
			<data auto_broadcast="numpy"/>
			<rt_info>
				<attribute name="fused_names" version="0" value="494, backbone.features.stage5.unit2.conv1.bn.bias, backbone.features.stage5.unit2.conv1.bn.running_mean, backbone.features.stage5.unit2.conv1.bn.running_var, backbone.features.stage5.unit2.conv1.bn.weight"/>
			</rt_info>
			<input>
				<port id="0" precision="FP32">
					<dim>1</dim>
					<dim>960</dim>
					<dim>13</dim>
					<dim>13</dim>
				</port>
				<port id="1" precision="FP32">
					<dim>1</dim>
					<dim>960</dim>
					<dim>1</dim>
					<dim>1</dim>
				</port>
			</input>
			<output>
				<port id="2" precision="FP32" names="494">
					<dim>1</dim>
					<dim>960</dim>
					<dim>13</dim>
					<dim>13</dim>
				</port>
			</output>
		</layer>
		<layer id="225" name="495" type="Clamp" version="opset1">
			<data min="0" max="6"/>
			<rt_info>
				<attribute name="fused_names" version="0" value="495"/>
			</rt_info>
			<input>
				<port id="0" precision="FP32">
					<dim>1</dim>
					<dim>960</dim>
					<dim>13</dim>
					<dim>13</dim>
				</port>
			</input>
			<output>
				<port id="1" precision="FP32" names="495">
					<dim>1</dim>
					<dim>960</dim>
					<dim>13</dim>
					<dim>13</dim>
				</port>
			</output>
		</layer>
		<layer id="226" name="Multiply_68747" type="Const" version="opset1">
			<data element_type="f32" shape="960, 1, 1, 3, 3" offset="3401096" size="34560"/>
			<output>
				<port id="0" precision="FP32">
					<dim>960</dim>
					<dim>1</dim>
					<dim>1</dim>
					<dim>3</dim>
					<dim>3</dim>
				</port>
			</output>
		</layer>
		<layer id="227" name="Multiply_68282" type="GroupConvolution" version="opset1">
			<data strides="1, 1" pads_begin="1, 1" pads_end="1, 1" dilations="1, 1" auto_pad="explicit"/>
			<rt_info>
				<attribute name="fused_names" version="0" value="497, backbone.features.stage5.unit2.conv2.bn.bias, backbone.features.stage5.unit2.conv2.bn.running_mean, backbone.features.stage5.unit2.conv2.bn.running_var, backbone.features.stage5.unit2.conv2.bn.weight"/>
			</rt_info>
			<input>
				<port id="0" precision="FP32">
					<dim>1</dim>
					<dim>960</dim>
					<dim>13</dim>
					<dim>13</dim>
				</port>
				<port id="1" precision="FP32">
					<dim>960</dim>
					<dim>1</dim>
					<dim>1</dim>
					<dim>3</dim>
					<dim>3</dim>
				</port>
			</input>
			<output>
				<port id="2" precision="FP32" names="496">
					<dim>1</dim>
					<dim>960</dim>
					<dim>13</dim>
					<dim>13</dim>
				</port>
			</output>
		</layer>
		<layer id="228" name="Constant_68287" type="Const" version="opset1">
			<data element_type="f32" shape="1, 960, 1, 1" offset="3435656" size="3840"/>
			<output>
				<port id="0" precision="FP32">
					<dim>1</dim>
					<dim>960</dim>
					<dim>1</dim>
					<dim>1</dim>
				</port>
			</output>
		</layer>
		<layer id="229" name="497" type="Add" version="opset1">
			<data auto_broadcast="numpy"/>
			<rt_info>
				<attribute name="fused_names" version="0" value="497, backbone.features.stage5.unit2.conv2.bn.bias, backbone.features.stage5.unit2.conv2.bn.running_mean, backbone.features.stage5.unit2.conv2.bn.running_var, backbone.features.stage5.unit2.conv2.bn.weight"/>
			</rt_info>
			<input>
				<port id="0" precision="FP32">
					<dim>1</dim>
					<dim>960</dim>
					<dim>13</dim>
					<dim>13</dim>
				</port>
				<port id="1" precision="FP32">
					<dim>1</dim>
					<dim>960</dim>
					<dim>1</dim>
					<dim>1</dim>
				</port>
			</input>
			<output>
				<port id="2" precision="FP32" names="497">
					<dim>1</dim>
					<dim>960</dim>
					<dim>13</dim>
					<dim>13</dim>
				</port>
			</output>
		</layer>
		<layer id="230" name="498" type="Clamp" version="opset1">
			<data min="0" max="6"/>
			<rt_info>
				<attribute name="fused_names" version="0" value="498"/>
			</rt_info>
			<input>
				<port id="0" precision="FP32">
					<dim>1</dim>
					<dim>960</dim>
					<dim>13</dim>
					<dim>13</dim>
				</port>
			</input>
			<output>
				<port id="1" precision="FP32" names="498">
					<dim>1</dim>
					<dim>960</dim>
					<dim>13</dim>
					<dim>13</dim>
				</port>
			</output>
		</layer>
		<layer id="231" name="Multiply_68755" type="Const" version="opset1">
			<data element_type="f32" shape="160, 960, 1, 1" offset="3439496" size="614400"/>
			<output>
				<port id="0" precision="FP32">
					<dim>160</dim>
					<dim>960</dim>
					<dim>1</dim>
					<dim>1</dim>
				</port>
			</output>
		</layer>
		<layer id="232" name="Multiply_68289" type="Convolution" version="opset1">
			<data strides="1, 1" dilations="1, 1" pads_begin="0, 0" pads_end="0, 0" auto_pad="explicit"/>
			<rt_info>
				<attribute name="fused_names" version="0" value="499, 500, backbone.features.stage5.unit2.conv3.bn.bias, backbone.features.stage5.unit2.conv3.bn.running_mean, backbone.features.stage5.unit2.conv3.bn.running_var, backbone.features.stage5.unit2.conv3.bn.weight"/>
			</rt_info>
			<input>
				<port id="0" precision="FP32">
					<dim>1</dim>
					<dim>960</dim>
					<dim>13</dim>
					<dim>13</dim>
				</port>
				<port id="1" precision="FP32">
					<dim>160</dim>
					<dim>960</dim>
					<dim>1</dim>
					<dim>1</dim>
				</port>
			</input>
			<output>
				<port id="2" precision="FP32">
					<dim>1</dim>
					<dim>160</dim>
					<dim>13</dim>
					<dim>13</dim>
				</port>
			</output>
		</layer>
		<layer id="233" name="Constant_68294" type="Const" version="opset1">
			<data element_type="f32" shape="1, 160, 1, 1" offset="4053896" size="640"/>
			<output>
				<port id="0" precision="FP32">
					<dim>1</dim>
					<dim>160</dim>
					<dim>1</dim>
					<dim>1</dim>
				</port>
			</output>
		</layer>
		<layer id="234" name="500" type="Add" version="opset1">
			<data auto_broadcast="numpy"/>
			<rt_info>
				<attribute name="fused_names" version="0" value="500, backbone.features.stage5.unit2.conv3.bn.bias, backbone.features.stage5.unit2.conv3.bn.running_mean, backbone.features.stage5.unit2.conv3.bn.running_var, backbone.features.stage5.unit2.conv3.bn.weight"/>
			</rt_info>
			<input>
				<port id="0" precision="FP32">
					<dim>1</dim>
					<dim>160</dim>
					<dim>13</dim>
					<dim>13</dim>
				</port>
				<port id="1" precision="FP32">
					<dim>1</dim>
					<dim>160</dim>
					<dim>1</dim>
					<dim>1</dim>
				</port>
			</input>
			<output>
				<port id="2" precision="FP32" names="500">
					<dim>1</dim>
					<dim>160</dim>
					<dim>13</dim>
					<dim>13</dim>
				</port>
			</output>
		</layer>
		<layer id="235" name="501" type="Add" version="opset1">
			<data auto_broadcast="numpy"/>
			<rt_info>
				<attribute name="fused_names" version="0" value="501"/>
			</rt_info>
			<input>
				<port id="0" precision="FP32">
					<dim>1</dim>
					<dim>160</dim>
					<dim>13</dim>
					<dim>13</dim>
				</port>
				<port id="1" precision="FP32">
					<dim>1</dim>
					<dim>160</dim>
					<dim>13</dim>
					<dim>13</dim>
				</port>
			</input>
			<output>
				<port id="2" precision="FP32" names="501">
					<dim>1</dim>
					<dim>160</dim>
					<dim>13</dim>
					<dim>13</dim>
				</port>
			</output>
		</layer>
		<layer id="236" name="Multiply_68764" type="Const" version="opset1">
			<data element_type="f32" shape="960, 160, 1, 1" offset="4054536" size="614400"/>
			<output>
				<port id="0" precision="FP32">
					<dim>960</dim>
					<dim>160</dim>
					<dim>1</dim>
					<dim>1</dim>
				</port>
			</output>
		</layer>
		<layer id="237" name="Multiply_68296" type="Convolution" version="opset1">
			<data strides="1, 1" dilations="1, 1" pads_begin="0, 0" pads_end="0, 0" auto_pad="explicit"/>
			<rt_info>
				<attribute name="fused_names" version="0" value="502, 503, backbone.features.stage5.unit3.conv1.bn.bias, backbone.features.stage5.unit3.conv1.bn.running_mean, backbone.features.stage5.unit3.conv1.bn.running_var, backbone.features.stage5.unit3.conv1.bn.weight"/>
			</rt_info>
			<input>
				<port id="0" precision="FP32">
					<dim>1</dim>
					<dim>160</dim>
					<dim>13</dim>
					<dim>13</dim>
				</port>
				<port id="1" precision="FP32">
					<dim>960</dim>
					<dim>160</dim>
					<dim>1</dim>
					<dim>1</dim>
				</port>
			</input>
			<output>
				<port id="2" precision="FP32">
					<dim>1</dim>
					<dim>960</dim>
					<dim>13</dim>
					<dim>13</dim>
				</port>
			</output>
		</layer>
		<layer id="238" name="Constant_68301" type="Const" version="opset1">
			<data element_type="f32" shape="1, 960, 1, 1" offset="4668936" size="3840"/>
			<output>
				<port id="0" precision="FP32">
					<dim>1</dim>
					<dim>960</dim>
					<dim>1</dim>
					<dim>1</dim>
				</port>
			</output>
		</layer>
		<layer id="239" name="503" type="Add" version="opset1">
			<data auto_broadcast="numpy"/>
			<rt_info>
				<attribute name="fused_names" version="0" value="503, backbone.features.stage5.unit3.conv1.bn.bias, backbone.features.stage5.unit3.conv1.bn.running_mean, backbone.features.stage5.unit3.conv1.bn.running_var, backbone.features.stage5.unit3.conv1.bn.weight"/>
			</rt_info>
			<input>
				<port id="0" precision="FP32">
					<dim>1</dim>
					<dim>960</dim>
					<dim>13</dim>
					<dim>13</dim>
				</port>
				<port id="1" precision="FP32">
					<dim>1</dim>
					<dim>960</dim>
					<dim>1</dim>
					<dim>1</dim>
				</port>
			</input>
			<output>
				<port id="2" precision="FP32" names="503">
					<dim>1</dim>
					<dim>960</dim>
					<dim>13</dim>
					<dim>13</dim>
				</port>
			</output>
		</layer>
		<layer id="240" name="504" type="Clamp" version="opset1">
			<data min="0" max="6"/>
			<rt_info>
				<attribute name="fused_names" version="0" value="504"/>
			</rt_info>
			<input>
				<port id="0" precision="FP32">
					<dim>1</dim>
					<dim>960</dim>
					<dim>13</dim>
					<dim>13</dim>
				</port>
			</input>
			<output>
				<port id="1" precision="FP32" names="504">
					<dim>1</dim>
					<dim>960</dim>
					<dim>13</dim>
					<dim>13</dim>
				</port>
			</output>
		</layer>
		<layer id="241" name="Multiply_68773" type="Const" version="opset1">
			<data element_type="f32" shape="960, 1, 1, 3, 3" offset="4672776" size="34560"/>
			<output>
				<port id="0" precision="FP32">
					<dim>960</dim>
					<dim>1</dim>
					<dim>1</dim>
					<dim>3</dim>
					<dim>3</dim>
				</port>
			</output>
		</layer>
		<layer id="242" name="Multiply_68303" type="GroupConvolution" version="opset1">
			<data strides="1, 1" pads_begin="1, 1" pads_end="1, 1" dilations="1, 1" auto_pad="explicit"/>
			<rt_info>
				<attribute name="fused_names" version="0" value="506, backbone.features.stage5.unit3.conv2.bn.bias, backbone.features.stage5.unit3.conv2.bn.running_mean, backbone.features.stage5.unit3.conv2.bn.running_var, backbone.features.stage5.unit3.conv2.bn.weight"/>
			</rt_info>
			<input>
				<port id="0" precision="FP32">
					<dim>1</dim>
					<dim>960</dim>
					<dim>13</dim>
					<dim>13</dim>
				</port>
				<port id="1" precision="FP32">
					<dim>960</dim>
					<dim>1</dim>
					<dim>1</dim>
					<dim>3</dim>
					<dim>3</dim>
				</port>
			</input>
			<output>
				<port id="2" precision="FP32" names="505">
					<dim>1</dim>
					<dim>960</dim>
					<dim>13</dim>
					<dim>13</dim>
				</port>
			</output>
		</layer>
		<layer id="243" name="Constant_68308" type="Const" version="opset1">
			<data element_type="f32" shape="1, 960, 1, 1" offset="4707336" size="3840"/>
			<output>
				<port id="0" precision="FP32">
					<dim>1</dim>
					<dim>960</dim>
					<dim>1</dim>
					<dim>1</dim>
				</port>
			</output>
		</layer>
		<layer id="244" name="506" type="Add" version="opset1">
			<data auto_broadcast="numpy"/>
			<rt_info>
				<attribute name="fused_names" version="0" value="506, backbone.features.stage5.unit3.conv2.bn.bias, backbone.features.stage5.unit3.conv2.bn.running_mean, backbone.features.stage5.unit3.conv2.bn.running_var, backbone.features.stage5.unit3.conv2.bn.weight"/>
			</rt_info>
			<input>
				<port id="0" precision="FP32">
					<dim>1</dim>
					<dim>960</dim>
					<dim>13</dim>
					<dim>13</dim>
				</port>
				<port id="1" precision="FP32">
					<dim>1</dim>
					<dim>960</dim>
					<dim>1</dim>
					<dim>1</dim>
				</port>
			</input>
			<output>
				<port id="2" precision="FP32" names="506">
					<dim>1</dim>
					<dim>960</dim>
					<dim>13</dim>
					<dim>13</dim>
				</port>
			</output>
		</layer>
		<layer id="245" name="507" type="Clamp" version="opset1">
			<data min="0" max="6"/>
			<rt_info>
				<attribute name="fused_names" version="0" value="507"/>
			</rt_info>
			<input>
				<port id="0" precision="FP32">
					<dim>1</dim>
					<dim>960</dim>
					<dim>13</dim>
					<dim>13</dim>
				</port>
			</input>
			<output>
				<port id="1" precision="FP32" names="507">
					<dim>1</dim>
					<dim>960</dim>
					<dim>13</dim>
					<dim>13</dim>
				</port>
			</output>
		</layer>
		<layer id="246" name="Multiply_68781" type="Const" version="opset1">
			<data element_type="f32" shape="160, 960, 1, 1" offset="4711176" size="614400"/>
			<output>
				<port id="0" precision="FP32">
					<dim>160</dim>
					<dim>960</dim>
					<dim>1</dim>
					<dim>1</dim>
				</port>
			</output>
		</layer>
		<layer id="247" name="Multiply_68310" type="Convolution" version="opset1">
			<data strides="1, 1" dilations="1, 1" pads_begin="0, 0" pads_end="0, 0" auto_pad="explicit"/>
			<rt_info>
				<attribute name="fused_names" version="0" value="508, 509, backbone.features.stage5.unit3.conv3.bn.bias, backbone.features.stage5.unit3.conv3.bn.running_mean, backbone.features.stage5.unit3.conv3.bn.running_var, backbone.features.stage5.unit3.conv3.bn.weight"/>
			</rt_info>
			<input>
				<port id="0" precision="FP32">
					<dim>1</dim>
					<dim>960</dim>
					<dim>13</dim>
					<dim>13</dim>
				</port>
				<port id="1" precision="FP32">
					<dim>160</dim>
					<dim>960</dim>
					<dim>1</dim>
					<dim>1</dim>
				</port>
			</input>
			<output>
				<port id="2" precision="FP32">
					<dim>1</dim>
					<dim>160</dim>
					<dim>13</dim>
					<dim>13</dim>
				</port>
			</output>
		</layer>
		<layer id="248" name="Constant_68315" type="Const" version="opset1">
			<data element_type="f32" shape="1, 160, 1, 1" offset="5325576" size="640"/>
			<output>
				<port id="0" precision="FP32">
					<dim>1</dim>
					<dim>160</dim>
					<dim>1</dim>
					<dim>1</dim>
				</port>
			</output>
		</layer>
		<layer id="249" name="509" type="Add" version="opset1">
			<data auto_broadcast="numpy"/>
			<rt_info>
				<attribute name="fused_names" version="0" value="509, backbone.features.stage5.unit3.conv3.bn.bias, backbone.features.stage5.unit3.conv3.bn.running_mean, backbone.features.stage5.unit3.conv3.bn.running_var, backbone.features.stage5.unit3.conv3.bn.weight"/>
			</rt_info>
			<input>
				<port id="0" precision="FP32">
					<dim>1</dim>
					<dim>160</dim>
					<dim>13</dim>
					<dim>13</dim>
				</port>
				<port id="1" precision="FP32">
					<dim>1</dim>
					<dim>160</dim>
					<dim>1</dim>
					<dim>1</dim>
				</port>
			</input>
			<output>
				<port id="2" precision="FP32" names="509">
					<dim>1</dim>
					<dim>160</dim>
					<dim>13</dim>
					<dim>13</dim>
				</port>
			</output>
		</layer>
		<layer id="250" name="510" type="Add" version="opset1">
			<data auto_broadcast="numpy"/>
			<rt_info>
				<attribute name="fused_names" version="0" value="510"/>
			</rt_info>
			<input>
				<port id="0" precision="FP32">
					<dim>1</dim>
					<dim>160</dim>
					<dim>13</dim>
					<dim>13</dim>
				</port>
				<port id="1" precision="FP32">
					<dim>1</dim>
					<dim>160</dim>
					<dim>13</dim>
					<dim>13</dim>
				</port>
			</input>
			<output>
				<port id="2" precision="FP32" names="510">
					<dim>1</dim>
					<dim>160</dim>
					<dim>13</dim>
					<dim>13</dim>
				</port>
			</output>
		</layer>
		<layer id="251" name="Multiply_68790" type="Const" version="opset1">
			<data element_type="f32" shape="960, 160, 1, 1" offset="5326216" size="614400"/>
			<output>
				<port id="0" precision="FP32">
					<dim>960</dim>
					<dim>160</dim>
					<dim>1</dim>
					<dim>1</dim>
				</port>
			</output>
		</layer>
		<layer id="252" name="Multiply_68317" type="Convolution" version="opset1">
			<data strides="1, 1" dilations="1, 1" pads_begin="0, 0" pads_end="0, 0" auto_pad="explicit"/>
			<rt_info>
				<attribute name="fused_names" version="0" value="511, 512, backbone.features.stage5.unit4.conv1.bn.bias, backbone.features.stage5.unit4.conv1.bn.running_mean, backbone.features.stage5.unit4.conv1.bn.running_var, backbone.features.stage5.unit4.conv1.bn.weight"/>
			</rt_info>
			<input>
				<port id="0" precision="FP32">
					<dim>1</dim>
					<dim>160</dim>
					<dim>13</dim>
					<dim>13</dim>
				</port>
				<port id="1" precision="FP32">
					<dim>960</dim>
					<dim>160</dim>
					<dim>1</dim>
					<dim>1</dim>
				</port>
			</input>
			<output>
				<port id="2" precision="FP32">
					<dim>1</dim>
					<dim>960</dim>
					<dim>13</dim>
					<dim>13</dim>
				</port>
			</output>
		</layer>
		<layer id="253" name="Constant_68322" type="Const" version="opset1">
			<data element_type="f32" shape="1, 960, 1, 1" offset="5940616" size="3840"/>
			<output>
				<port id="0" precision="FP32">
					<dim>1</dim>
					<dim>960</dim>
					<dim>1</dim>
					<dim>1</dim>
				</port>
			</output>
		</layer>
		<layer id="254" name="512" type="Add" version="opset1">
			<data auto_broadcast="numpy"/>
			<rt_info>
				<attribute name="fused_names" version="0" value="512, backbone.features.stage5.unit4.conv1.bn.bias, backbone.features.stage5.unit4.conv1.bn.running_mean, backbone.features.stage5.unit4.conv1.bn.running_var, backbone.features.stage5.unit4.conv1.bn.weight"/>
			</rt_info>
			<input>
				<port id="0" precision="FP32">
					<dim>1</dim>
					<dim>960</dim>
					<dim>13</dim>
					<dim>13</dim>
				</port>
				<port id="1" precision="FP32">
					<dim>1</dim>
					<dim>960</dim>
					<dim>1</dim>
					<dim>1</dim>
				</port>
			</input>
			<output>
				<port id="2" precision="FP32" names="512">
					<dim>1</dim>
					<dim>960</dim>
					<dim>13</dim>
					<dim>13</dim>
				</port>
			</output>
		</layer>
		<layer id="255" name="513" type="Clamp" version="opset1">
			<data min="0" max="6"/>
			<rt_info>
				<attribute name="fused_names" version="0" value="513"/>
			</rt_info>
			<input>
				<port id="0" precision="FP32">
					<dim>1</dim>
					<dim>960</dim>
					<dim>13</dim>
					<dim>13</dim>
				</port>
			</input>
			<output>
				<port id="1" precision="FP32" names="513">
					<dim>1</dim>
					<dim>960</dim>
					<dim>13</dim>
					<dim>13</dim>
				</port>
			</output>
		</layer>
		<layer id="256" name="Multiply_68799" type="Const" version="opset1">
			<data element_type="f32" shape="960, 1, 1, 3, 3" offset="5944456" size="34560"/>
			<output>
				<port id="0" precision="FP32">
					<dim>960</dim>
					<dim>1</dim>
					<dim>1</dim>
					<dim>3</dim>
					<dim>3</dim>
				</port>
			</output>
		</layer>
		<layer id="257" name="Multiply_68324" type="GroupConvolution" version="opset1">
			<data strides="1, 1" pads_begin="1, 1" pads_end="1, 1" dilations="1, 1" auto_pad="explicit"/>
			<rt_info>
				<attribute name="fused_names" version="0" value="515, backbone.features.stage5.unit4.conv2.bn.bias, backbone.features.stage5.unit4.conv2.bn.running_mean, backbone.features.stage5.unit4.conv2.bn.running_var, backbone.features.stage5.unit4.conv2.bn.weight"/>
			</rt_info>
			<input>
				<port id="0" precision="FP32">
					<dim>1</dim>
					<dim>960</dim>
					<dim>13</dim>
					<dim>13</dim>
				</port>
				<port id="1" precision="FP32">
					<dim>960</dim>
					<dim>1</dim>
					<dim>1</dim>
					<dim>3</dim>
					<dim>3</dim>
				</port>
			</input>
			<output>
				<port id="2" precision="FP32" names="514">
					<dim>1</dim>
					<dim>960</dim>
					<dim>13</dim>
					<dim>13</dim>
				</port>
			</output>
		</layer>
		<layer id="258" name="Constant_68329" type="Const" version="opset1">
			<data element_type="f32" shape="1, 960, 1, 1" offset="5979016" size="3840"/>
			<output>
				<port id="0" precision="FP32">
					<dim>1</dim>
					<dim>960</dim>
					<dim>1</dim>
					<dim>1</dim>
				</port>
			</output>
		</layer>
		<layer id="259" name="515" type="Add" version="opset1">
			<data auto_broadcast="numpy"/>
			<rt_info>
				<attribute name="fused_names" version="0" value="515, backbone.features.stage5.unit4.conv2.bn.bias, backbone.features.stage5.unit4.conv2.bn.running_mean, backbone.features.stage5.unit4.conv2.bn.running_var, backbone.features.stage5.unit4.conv2.bn.weight"/>
			</rt_info>
			<input>
				<port id="0" precision="FP32">
					<dim>1</dim>
					<dim>960</dim>
					<dim>13</dim>
					<dim>13</dim>
				</port>
				<port id="1" precision="FP32">
					<dim>1</dim>
					<dim>960</dim>
					<dim>1</dim>
					<dim>1</dim>
				</port>
			</input>
			<output>
				<port id="2" precision="FP32" names="515">
					<dim>1</dim>
					<dim>960</dim>
					<dim>13</dim>
					<dim>13</dim>
				</port>
			</output>
		</layer>
		<layer id="260" name="516" type="Clamp" version="opset1">
			<data min="0" max="6"/>
			<rt_info>
				<attribute name="fused_names" version="0" value="516"/>
			</rt_info>
			<input>
				<port id="0" precision="FP32">
					<dim>1</dim>
					<dim>960</dim>
					<dim>13</dim>
					<dim>13</dim>
				</port>
			</input>
			<output>
				<port id="1" precision="FP32" names="516">
					<dim>1</dim>
					<dim>960</dim>
					<dim>13</dim>
					<dim>13</dim>
				</port>
			</output>
		</layer>
		<layer id="261" name="Multiply_68807" type="Const" version="opset1">
			<data element_type="f32" shape="320, 960, 1, 1" offset="5982856" size="1228800"/>
			<output>
				<port id="0" precision="FP32">
					<dim>320</dim>
					<dim>960</dim>
					<dim>1</dim>
					<dim>1</dim>
				</port>
			</output>
		</layer>
		<layer id="262" name="Multiply_68331" type="Convolution" version="opset1">
			<data strides="1, 1" dilations="1, 1" pads_begin="0, 0" pads_end="0, 0" auto_pad="explicit"/>
			<rt_info>
				<attribute name="fused_names" version="0" value="517, 518, backbone.features.stage5.unit4.conv3.bn.bias, backbone.features.stage5.unit4.conv3.bn.running_mean, backbone.features.stage5.unit4.conv3.bn.running_var, backbone.features.stage5.unit4.conv3.bn.weight"/>
			</rt_info>
			<input>
				<port id="0" precision="FP32">
					<dim>1</dim>
					<dim>960</dim>
					<dim>13</dim>
					<dim>13</dim>
				</port>
				<port id="1" precision="FP32">
					<dim>320</dim>
					<dim>960</dim>
					<dim>1</dim>
					<dim>1</dim>
				</port>
			</input>
			<output>
				<port id="2" precision="FP32">
					<dim>1</dim>
					<dim>320</dim>
					<dim>13</dim>
					<dim>13</dim>
				</port>
…
		<edge from-layer="1340" from-port="0" to-layer="1341" to-port="1"/>
		<edge from-layer="1341" from-port="2" to-layer="1347" to-port="0"/>
		<edge from-layer="1342" from-port="0" to-layer="1344" to-port="0"/>
		<edge from-layer="1343" from-port="1" to-layer="1344" to-port="1"/>
		<edge from-layer="1344" from-port="2" to-layer="1346" to-port="0"/>
		<edge from-layer="1345" from-port="0" to-layer="1346" to-port="1"/>
		<edge from-layer="1346" from-port="2" to-layer="1347" to-port="1"/>
		<edge from-layer="1347" from-port="2" to-layer="1349" to-port="0"/>
		<edge from-layer="1348" from-port="0" to-layer="1349" to-port="1"/>
		<edge from-layer="1349" from-port="2" to-layer="1351" to-port="0"/>
		<edge from-layer="1349" from-port="2" to-layer="1358" to-port="0"/>
		<edge from-layer="1350" from-port="0" to-layer="1351" to-port="1"/>
		<edge from-layer="1351" from-port="2" to-layer="1362" to-port="0"/>
		<edge from-layer="1352" from-port="0" to-layer="1354" to-port="1"/>
		<edge from-layer="1353" from-port="0" to-layer="1354" to-port="2"/>
		<edge from-layer="1354" from-port="3" to-layer="1355" to-port="0"/>
		<edge from-layer="1355" from-port="1" to-layer="1357" to-port="0"/>
		<edge from-layer="1356" from-port="0" to-layer="1357" to-port="1"/>
		<edge from-layer="1357" from-port="2" to-layer="1359" to-port="0"/>
		<edge from-layer="1358" from-port="1" to-layer="1359" to-port="1"/>
		<edge from-layer="1359" from-port="2" to-layer="1361" to-port="0"/>
		<edge from-layer="1360" from-port="0" to-layer="1361" to-port="1"/>
		<edge from-layer="1361" from-port="2" to-layer="1362" to-port="1"/>
		<edge from-layer="1362" from-port="2" to-layer="1364" to-port="0"/>
		<edge from-layer="1363" from-port="0" to-layer="1364" to-port="1"/>
		<edge from-layer="1364" from-port="2" to-layer="1366" to-port="0"/>
		<edge from-layer="1365" from-port="0" to-layer="1366" to-port="1"/>
		<edge from-layer="1366" from-port="2" to-layer="1435" to-port="1"/>
		<edge from-layer="1367" from-port="0" to-layer="1369" to-port="1"/>
		<edge from-layer="1368" from-port="0" to-layer="1369" to-port="2"/>
		<edge from-layer="1369" from-port="3" to-layer="1373" to-port="0"/>
		<edge from-layer="1370" from-port="0" to-layer="1372" to-port="1"/>
		<edge from-layer="1371" from-port="0" to-layer="1372" to-port="2"/>
		<edge from-layer="1372" from-port="3" to-layer="1373" to-port="1"/>
		<edge from-layer="1373" from-port="2" to-layer="1375" to-port="0"/>
		<edge from-layer="1373" from-port="2" to-layer="1377" to-port="0"/>
		<edge from-layer="1374" from-port="0" to-layer="1375" to-port="1"/>
		<edge from-layer="1375" from-port="2" to-layer="1381" to-port="0"/>
		<edge from-layer="1376" from-port="0" to-layer="1378" to-port="0"/>
		<edge from-layer="1377" from-port="1" to-layer="1378" to-port="1"/>
		<edge from-layer="1378" from-port="2" to-layer="1380" to-port="0"/>
		<edge from-layer="1379" from-port="0" to-layer="1380" to-port="1"/>
		<edge from-layer="1380" from-port="2" to-layer="1381" to-port="1"/>
		<edge from-layer="1381" from-port="2" to-layer="1383" to-port="0"/>
		<edge from-layer="1382" from-port="0" to-layer="1383" to-port="1"/>
		<edge from-layer="1383" from-port="2" to-layer="1385" to-port="0"/>
		<edge from-layer="1383" from-port="2" to-layer="1392" to-port="0"/>
		<edge from-layer="1384" from-port="0" to-layer="1385" to-port="1"/>
		<edge from-layer="1385" from-port="2" to-layer="1396" to-port="0"/>
		<edge from-layer="1386" from-port="0" to-layer="1388" to-port="1"/>
		<edge from-layer="1387" from-port="0" to-layer="1388" to-port="2"/>
		<edge from-layer="1388" from-port="3" to-layer="1389" to-port="0"/>
		<edge from-layer="1389" from-port="1" to-layer="1391" to-port="0"/>
		<edge from-layer="1390" from-port="0" to-layer="1391" to-port="1"/>
		<edge from-layer="1391" from-port="2" to-layer="1393" to-port="0"/>
		<edge from-layer="1392" from-port="1" to-layer="1393" to-port="1"/>
		<edge from-layer="1393" from-port="2" to-layer="1395" to-port="0"/>
		<edge from-layer="1394" from-port="0" to-layer="1395" to-port="1"/>
		<edge from-layer="1395" from-port="2" to-layer="1396" to-port="1"/>
		<edge from-layer="1396" from-port="2" to-layer="1398" to-port="0"/>
		<edge from-layer="1397" from-port="0" to-layer="1398" to-port="1"/>
		<edge from-layer="1398" from-port="2" to-layer="1400" to-port="0"/>
		<edge from-layer="1399" from-port="0" to-layer="1400" to-port="1"/>
		<edge from-layer="1400" from-port="2" to-layer="1435" to-port="2"/>
		<edge from-layer="1401" from-port="0" to-layer="1403" to-port="1"/>
		<edge from-layer="1402" from-port="0" to-layer="1403" to-port="2"/>
		<edge from-layer="1403" from-port="3" to-layer="1407" to-port="0"/>
		<edge from-layer="1404" from-port="0" to-layer="1406" to-port="1"/>
		<edge from-layer="1405" from-port="0" to-layer="1406" to-port="2"/>
		<edge from-layer="1406" from-port="3" to-layer="1407" to-port="1"/>
		<edge from-layer="1407" from-port="2" to-layer="1409" to-port="0"/>
		<edge from-layer="1407" from-port="2" to-layer="1411" to-port="0"/>
		<edge from-layer="1408" from-port="0" to-layer="1409" to-port="1"/>
		<edge from-layer="1409" from-port="2" to-layer="1415" to-port="0"/>
		<edge from-layer="1410" from-port="0" to-layer="1412" to-port="0"/>
		<edge from-layer="1411" from-port="1" to-layer="1412" to-port="1"/>
		<edge from-layer="1412" from-port="2" to-layer="1414" to-port="0"/>
		<edge from-layer="1413" from-port="0" to-layer="1414" to-port="1"/>
		<edge from-layer="1414" from-port="2" to-layer="1415" to-port="1"/>
		<edge from-layer="1415" from-port="2" to-layer="1417" to-port="0"/>
		<edge from-layer="1416" from-port="0" to-layer="1417" to-port="1"/>
		<edge from-layer="1417" from-port="2" to-layer="1426" to-port="0"/>
		<edge from-layer="1417" from-port="2" to-layer="1419" to-port="0"/>
		<edge from-layer="1418" from-port="0" to-layer="1419" to-port="1"/>
		<edge from-layer="1419" from-port="2" to-layer="1430" to-port="0"/>
		<edge from-layer="1420" from-port="0" to-layer="1422" to-port="1"/>
		<edge from-layer="1421" from-port="0" to-layer="1422" to-port="2"/>
		<edge from-layer="1422" from-port="3" to-layer="1423" to-port="0"/>
		<edge from-layer="1423" from-port="1" to-layer="1425" to-port="0"/>
		<edge from-layer="1424" from-port="0" to-layer="1425" to-port="1"/>
		<edge from-layer="1425" from-port="2" to-layer="1427" to-port="0"/>
		<edge from-layer="1426" from-port="1" to-layer="1427" to-port="1"/>
		<edge from-layer="1427" from-port="2" to-layer="1429" to-port="0"/>
		<edge from-layer="1428" from-port="0" to-layer="1429" to-port="1"/>
		<edge from-layer="1429" from-port="2" to-layer="1430" to-port="1"/>
		<edge from-layer="1430" from-port="2" to-layer="1432" to-port="0"/>
		<edge from-layer="1431" from-port="0" to-layer="1432" to-port="1"/>
		<edge from-layer="1432" from-port="2" to-layer="1434" to-port="0"/>
		<edge from-layer="1433" from-port="0" to-layer="1434" to-port="1"/>
		<edge from-layer="1434" from-port="2" to-layer="1435" to-port="3"/>
		<edge from-layer="1435" from-port="4" to-layer="1716" to-port="3"/>
		<edge from-layer="1436" from-port="0" to-layer="1487" to-port="0"/>
		<edge from-layer="1437" from-port="1" to-layer="1439" to-port="0"/>
		<edge from-layer="1438" from-port="0" to-layer="1439" to-port="1"/>
		<edge from-layer="1439" from-port="2" to-layer="1441" to-port="0"/>
		<edge from-layer="1440" from-port="0" to-layer="1441" to-port="1"/>
		<edge from-layer="1441" from-port="2" to-layer="1538" to-port="0"/>
		<edge from-layer="1441" from-port="2" to-layer="1442" to-port="0"/>
		<edge from-layer="1442" from-port="2" to-layer="1444" to-port="0"/>
		<edge from-layer="1443" from-port="0" to-layer="1444" to-port="1"/>
		<edge from-layer="1444" from-port="2" to-layer="1446" to-port="0"/>
		<edge from-layer="1445" from-port="0" to-layer="1446" to-port="1"/>
		<edge from-layer="1446" from-port="2" to-layer="1448" to-port="0"/>
		<edge from-layer="1447" from-port="0" to-layer="1448" to-port="1"/>
		<edge from-layer="1448" from-port="2" to-layer="1449" to-port="0"/>
		<edge from-layer="1449" from-port="1" to-layer="1450" to-port="0"/>
		<edge from-layer="1450" from-port="2" to-layer="1452" to-port="0"/>
		<edge from-layer="1451" from-port="0" to-layer="1452" to-port="1"/>
		<edge from-layer="1452" from-port="2" to-layer="1454" to-port="0"/>
		<edge from-layer="1453" from-port="0" to-layer="1454" to-port="1"/>
		<edge from-layer="1454" from-port="2" to-layer="1456" to-port="0"/>
		<edge from-layer="1455" from-port="0" to-layer="1456" to-port="1"/>
		<edge from-layer="1456" from-port="2" to-layer="1457" to-port="0"/>
		<edge from-layer="1457" from-port="1" to-layer="1458" to-port="0"/>
		<edge from-layer="1458" from-port="2" to-layer="1460" to-port="0"/>
		<edge from-layer="1459" from-port="0" to-layer="1460" to-port="1"/>
		<edge from-layer="1460" from-port="2" to-layer="1462" to-port="0"/>
		<edge from-layer="1461" from-port="0" to-layer="1462" to-port="1"/>
		<edge from-layer="1462" from-port="2" to-layer="1464" to-port="0"/>
		<edge from-layer="1463" from-port="0" to-layer="1464" to-port="1"/>
		<edge from-layer="1464" from-port="2" to-layer="1465" to-port="0"/>
		<edge from-layer="1465" from-port="1" to-layer="1466" to-port="0"/>
		<edge from-layer="1466" from-port="2" to-layer="1468" to-port="0"/>
		<edge from-layer="1467" from-port="0" to-layer="1468" to-port="1"/>
		<edge from-layer="1468" from-port="2" to-layer="1470" to-port="0"/>
		<edge from-layer="1469" from-port="0" to-layer="1470" to-port="1"/>
		<edge from-layer="1470" from-port="2" to-layer="1472" to-port="0"/>
		<edge from-layer="1471" from-port="0" to-layer="1472" to-port="1"/>
		<edge from-layer="1472" from-port="2" to-layer="1473" to-port="0"/>
		<edge from-layer="1473" from-port="1" to-layer="1474" to-port="0"/>
		<edge from-layer="1473" from-port="1" to-layer="1832" to-port="0"/>
		<edge from-layer="1474" from-port="2" to-layer="1476" to-port="0"/>
		<edge from-layer="1475" from-port="0" to-layer="1476" to-port="1"/>
		<edge from-layer="1476" from-port="2" to-layer="1765" to-port="0"/>
		<edge from-layer="1476" from-port="2" to-layer="1477" to-port="0"/>
		<edge from-layer="1477" from-port="1" to-layer="1502" to-port="0"/>
		<edge from-layer="1477" from-port="1" to-layer="1480" to-port="0"/>
		<edge from-layer="1478" from-port="0" to-layer="1480" to-port="1"/>
		<edge from-layer="1479" from-port="0" to-layer="1480" to-port="2"/>
		<edge from-layer="1480" from-port="3" to-layer="1482" to-port="0"/>
		<edge from-layer="1481" from-port="0" to-layer="1482" to-port="1"/>
		<edge from-layer="1482" from-port="2" to-layer="1484" to-port="0"/>
		<edge from-layer="1483" from-port="0" to-layer="1484" to-port="1"/>
		<edge from-layer="1484" from-port="2" to-layer="1486" to-port="0"/>
		<edge from-layer="1485" from-port="0" to-layer="1486" to-port="1"/>
		<edge from-layer="1485" from-port="0" to-layer="1491" to-port="1"/>
		<edge from-layer="1486" from-port="2" to-layer="1487" to-port="1"/>
		<edge from-layer="1487" from-port="2" to-layer="1488" to-port="0"/>
		<edge from-layer="1488" from-port="1" to-layer="1490" to-port="0"/>
		<edge from-layer="1489" from-port="0" to-layer="1490" to-port="1"/>
		<edge from-layer="1490" from-port="2" to-layer="1491" to-port="0"/>
		<edge from-layer="1491" from-port="2" to-layer="1492" to-port="0"/>
		<edge from-layer="1492" from-port="1" to-layer="1494" to-port="0"/>
		<edge from-layer="1493" from-port="0" to-layer="1494" to-port="1"/>
		<edge from-layer="1494" from-port="2" to-layer="1498" to-port="0"/>
		<edge from-layer="1494" from-port="2" to-layer="1496" to-port="0"/>
		<edge from-layer="1495" from-port="0" to-layer="1497" to-port="0"/>
		<edge from-layer="1496" from-port="1" to-layer="1518" to-port="1"/>
		<edge from-layer="1496" from-port="1" to-layer="1497" to-port="1"/>
		<edge from-layer="1497" from-port="2" to-layer="1498" to-port="1"/>
		<edge from-layer="1498" from-port="2" to-layer="1519" to-port="0"/>
		<edge from-layer="1499" from-port="0" to-layer="1509" to-port="0"/>
		<edge from-layer="1500" from-port="0" to-layer="1502" to-port="1"/>
		<edge from-layer="1501" from-port="0" to-layer="1502" to-port="2"/>
		<edge from-layer="1502" from-port="3" to-layer="1504" to-port="0"/>
		<edge from-layer="1503" from-port="0" to-layer="1504" to-port="1"/>
		<edge from-layer="1504" from-port="2" to-layer="1506" to-port="0"/>
		<edge from-layer="1505" from-port="0" to-layer="1506" to-port="1"/>
		<edge from-layer="1506" from-port="2" to-layer="1508" to-port="0"/>
		<edge from-layer="1507" from-port="0" to-layer="1513" to-port="1"/>
		<edge from-layer="1507" from-port="0" to-layer="1508" to-port="1"/>
		<edge from-layer="1508" from-port="2" to-layer="1509" to-port="1"/>
		<edge from-layer="1509" from-port="2" to-layer="1510" to-port="0"/>
		<edge from-layer="1510" from-port="1" to-layer="1512" to-port="0"/>
		<edge from-layer="1511" from-port="0" to-layer="1512" to-port="1"/>
		<edge from-layer="1512" from-port="2" to-layer="1513" to-port="0"/>
		<edge from-layer="1513" from-port="2" to-layer="1514" to-port="0"/>
		<edge from-layer="1514" from-port="1" to-layer="1516" to-port="0"/>
		<edge from-layer="1515" from-port="0" to-layer="1516" to-port="1"/>
		<edge from-layer="1516" from-port="2" to-layer="1526" to-port="0"/>
		<edge from-layer="1516" from-port="2" to-layer="1517" to-port="0"/>
		<edge from-layer="1517" from-port="1" to-layer="1525" to-port="0"/>
		<edge from-layer="1517" from-port="1" to-layer="1518" to-port="0"/>
		<edge from-layer="1518" from-port="2" to-layer="1519" to-port="1"/>
		<edge from-layer="1518" from-port="2" to-layer="1527" to-port="1"/>
		<edge from-layer="1519" from-port="2" to-layer="1521" to-port="0"/>
		<edge from-layer="1520" from-port="0" to-layer="1521" to-port="1"/>
		<edge from-layer="1521" from-port="2" to-layer="1523" to-port="0"/>
		<edge from-layer="1522" from-port="0" to-layer="1523" to-port="1"/>
		<edge from-layer="1523" from-port="2" to-layer="1532" to-port="0"/>
		<edge from-layer="1524" from-port="0" to-layer="1525" to-port="1"/>
		<edge from-layer="1525" from-port="2" to-layer="1526" to-port="1"/>
		<edge from-layer="1526" from-port="2" to-layer="1527" to-port="0"/>
		<edge from-layer="1527" from-port="2" to-layer="1529" to-port="0"/>
		<edge from-layer="1528" from-port="0" to-layer="1529" to-port="1"/>
		<edge from-layer="1529" from-port="2" to-layer="1531" to-port="0"/>
		<edge from-layer="1530" from-port="0" to-layer="1531" to-port="1"/>
		<edge from-layer="1531" from-port="2" to-layer="1532" to-port="1"/>
		<edge from-layer="1532" from-port="2" to-layer="1534" to-port="0"/>
		<edge from-layer="1533" from-port="0" to-layer="1534" to-port="1"/>
		<edge from-layer="1534" from-port="2" to-layer="1683" to-port="0"/>
		<edge from-layer="1534" from-port="2" to-layer="1615" to-port="0"/>
		<edge from-layer="1534" from-port="2" to-layer="1649" to-port="0"/>
		<edge from-layer="1534" from-port="2" to-layer="1537" to-port="0"/>
		<edge from-layer="1535" from-port="0" to-layer="1537" to-port="1"/>
		<edge from-layer="1536" from-port="0" to-layer="1537" to-port="2"/>
		<edge from-layer="1537" from-port="3" to-layer="1585" to-port="0"/>
		<edge from-layer="1538" from-port="2" to-layer="1540" to-port="0"/>
		<edge from-layer="1539" from-port="0" to-layer="1540" to-port="1"/>
		<edge from-layer="1540" from-port="2" to-layer="1542" to-port="0"/>
		<edge from-layer="1541" from-port="0" to-layer="1542" to-port="1"/>
		<edge from-layer="1542" from-port="2" to-layer="1544" to-port="0"/>
		<edge from-layer="1543" from-port="0" to-layer="1544" to-port="1"/>
		<edge from-layer="1544" from-port="2" to-layer="1545" to-port="0"/>
		<edge from-layer="1545" from-port="1" to-layer="1546" to-port="0"/>
		<edge from-layer="1546" from-port="2" to-layer="1548" to-port="0"/>
		<edge from-layer="1547" from-port="0" to-layer="1548" to-port="1"/>
		<edge from-layer="1548" from-port="2" to-layer="1550" to-port="0"/>
		<edge from-layer="1549" from-port="0" to-layer="1550" to-port="1"/>
		<edge from-layer="1550" from-port="2" to-layer="1552" to-port="0"/>
		<edge from-layer="1551" from-port="0" to-layer="1552" to-port="1"/>
		<edge from-layer="1552" from-port="2" to-layer="1553" to-port="0"/>
		<edge from-layer="1553" from-port="1" to-layer="1554" to-port="0"/>
		<edge from-layer="1554" from-port="2" to-layer="1556" to-port="0"/>
		<edge from-layer="1555" from-port="0" to-layer="1556" to-port="1"/>
		<edge from-layer="1556" from-port="2" to-layer="1558" to-port="0"/>
		<edge from-layer="1557" from-port="0" to-layer="1558" to-port="1"/>
		<edge from-layer="1558" from-port="2" to-layer="1560" to-port="0"/>
		<edge from-layer="1559" from-port="0" to-layer="1560" to-port="1"/>
		<edge from-layer="1560" from-port="2" to-layer="1561" to-port="0"/>
		<edge from-layer="1561" from-port="1" to-layer="1562" to-port="0"/>
		<edge from-layer="1562" from-port="2" to-layer="1564" to-port="0"/>
		<edge from-layer="1563" from-port="0" to-layer="1564" to-port="1"/>
		<edge from-layer="1564" from-port="2" to-layer="1566" to-port="0"/>
		<edge from-layer="1565" from-port="0" to-layer="1566" to-port="1"/>
		<edge from-layer="1566" from-port="2" to-layer="1568" to-port="0"/>
		<edge from-layer="1567" from-port="0" to-layer="1568" to-port="1"/>
		<edge from-layer="1568" from-port="2" to-layer="1569" to-port="0"/>
		<edge from-layer="1569" from-port="1" to-layer="1571" to-port="0"/>
		<edge from-layer="1570" from-port="0" to-layer="1571" to-port="1"/>
		<edge from-layer="1571" from-port="2" to-layer="1573" to-port="0"/>
		<edge from-layer="1572" from-port="0" to-layer="1573" to-port="1"/>
		<edge from-layer="1573" from-port="2" to-layer="1574" to-port="0"/>
		<edge from-layer="1574" from-port="1" to-layer="1577" to-port="0"/>
		<edge from-layer="1575" from-port="0" to-layer="1577" to-port="1"/>
		<edge from-layer="1576" from-port="0" to-layer="1577" to-port="2"/>
		<edge from-layer="1577" from-port="3" to-layer="1579" to-port="0"/>
		<edge from-layer="1578" from-port="0" to-layer="1579" to-port="1"/>
		<edge from-layer="1579" from-port="2" to-layer="1581" to-port="0"/>
		<edge from-layer="1580" from-port="0" to-layer="1581" to-port="1"/>
		<edge from-layer="1581" from-port="2" to-layer="1584" to-port="0"/>
		<edge from-layer="1581" from-port="2" to-layer="1652" to-port="0"/>
		<edge from-layer="1581" from-port="2" to-layer="1618" to-port="0"/>
		<edge from-layer="1581" from-port="2" to-layer="1686" to-port="0"/>
		<edge from-layer="1582" from-port="0" to-layer="1584" to-port="1"/>
		<edge from-layer="1583" from-port="0" to-layer="1584" to-port="2"/>
		<edge from-layer="1584" from-port="3" to-layer="1585" to-port="1"/>
		<edge from-layer="1585" from-port="2" to-layer="1589" to-port="0"/>
		<edge from-layer="1585" from-port="2" to-layer="1587" to-port="0"/>
		<edge from-layer="1586" from-port="0" to-layer="1587" to-port="1"/>
		<edge from-layer="1587" from-port="2" to-layer="1593" to-port="0"/>
		<edge from-layer="1588" from-port="0" to-layer="1590" to-port="0"/>
		<edge from-layer="1589" from-port="1" to-layer="1590" to-port="1"/>
		<edge from-layer="1590" from-port="2" to-layer="1592" to-port="0"/>
		<edge from-layer="1591" from-port="0" to-layer="1592" to-port="1"/>
		<edge from-layer="1592" from-port="2" to-layer="1593" to-port="1"/>
		<edge from-layer="1593" from-port="2" to-layer="1595" to-port="0"/>
		<edge from-layer="1594" from-port="0" to-layer="1595" to-port="1"/>
		<edge from-layer="1595" from-port="2" to-layer="1597" to-port="0"/>
		<edge from-layer="1595" from-port="2" to-layer="1604" to-port="0"/>
		<edge from-layer="1596" from-port="0" to-layer="1597" to-port="1"/>
		<edge from-layer="1597" from-port="2" to-layer="1608" to-port="0"/>
		<edge from-layer="1598" from-port="0" to-layer="1600" to-port="1"/>
		<edge from-layer="1599" from-port="0" to-layer="1600" to-port="2"/>
		<edge from-layer="1600" from-port="3" to-layer="1601" to-port="0"/>
		<edge from-layer="1601" from-port="1" to-layer="1603" to-port="0"/>
		<edge from-layer="1602" from-port="0" to-layer="1603" to-port="1"/>
		<edge from-layer="1603" from-port="2" to-layer="1605" to-port="0"/>
		<edge from-layer="1604" from-port="1" to-layer="1605" to-port="1"/>
		<edge from-layer="1605" from-port="2" to-layer="1607" to-port="0"/>
		<edge from-layer="1606" from-port="0" to-layer="1607" to-port="1"/>
		<edge from-layer="1607" from-port="2" to-layer="1608" to-port="1"/>
		<edge from-layer="1608" from-port="2" to-layer="1610" to-port="0"/>
		<edge from-layer="1609" from-port="0" to-layer="1610" to-port="1"/>
		<edge from-layer="1610" from-port="2" to-layer="1612" to-port="0"/>
		<edge from-layer="1611" from-port="0" to-layer="1612" to-port="1"/>
		<edge from-layer="1612" from-port="2" to-layer="1715" to-port="0"/>
		<edge from-layer="1613" from-port="0" to-layer="1615" to-port="1"/>
		<edge from-layer="1614" from-port="0" to-layer="1615" to-port="2"/>
		<edge from-layer="1615" from-port="3" to-layer="1619" to-port="0"/>
		<edge from-layer="1616" from-port="0" to-layer="1618" to-port="1"/>
		<edge from-layer="1617" from-port="0" to-layer="1618" to-port="2"/>
		<edge from-layer="1618" from-port="3" to-layer="1619" to-port="1"/>
		<edge from-layer="1619" from-port="2" to-layer="1623" to-port="0"/>
		<edge from-layer="1619" from-port="2" to-layer="1621" to-port="0"/>
		<edge from-layer="1620" from-port="0" to-layer="1621" to-port="1"/>
		<edge from-layer="1621" from-port="2" to-layer="1627" to-port="0"/>
		<edge from-layer="1622" from-port="0" to-layer="1624" to-port="0"/>
		<edge from-layer="1623" from-port="1" to-layer="1624" to-port="1"/>
		<edge from-layer="1624" from-port="2" to-layer="1626" to-port="0"/>
		<edge from-layer="1625" from-port="0" to-layer="1626" to-port="1"/>
		<edge from-layer="1626" from-port="2" to-layer="1627" to-port="1"/>
		<edge from-layer="1627" from-port="2" to-layer="1629" to-port="0"/>
		<edge from-layer="1628" from-port="0" to-layer="1629" to-port="1"/>
		<edge from-layer="1629" from-port="2" to-layer="1638" to-port="0"/>
		<edge from-layer="1629" from-port="2" to-layer="1631" to-port="0"/>
		<edge from-layer="1630" from-port="0" to-layer="1631" to-port="1"/>
		<edge from-layer="1631" from-port="2" to-layer="1642" to-port="0"/>
		<edge from-layer="1632" from-port="0" to-layer="1634" to-port="1"/>
		<edge from-layer="1633" from-port="0" to-layer="1634" to-port="2"/>
		<edge from-layer="1634" from-port="3" to-layer="1635" to-port="0"/>
		<edge from-layer="1635" from-port="1" to-layer="1637" to-port="0"/>
		<edge from-layer="1636" from-port="0" to-layer="1637" to-port="1"/>
		<edge from-layer="1637" from-port="2" to-layer="1639" to-port="0"/>
		<edge from-layer="1638" from-port="1" to-layer="1639" to-port="1"/>
		<edge from-layer="1639" from-port="2" to-layer="1641" to-port="0"/>
		<edge from-layer="1640" from-port="0" to-layer="1641" to-port="1"/>
		<edge from-layer="1641" from-port="2" to-layer="1642" to-port="1"/>
		<edge from-layer="1642" from-port="2" to-layer="1644" to-port="0"/>
		<edge from-layer="1643" from-port="0" to-layer="1644" to-port="1"/>
		<edge from-layer="1644" from-port="2" to-layer="1646" to-port="0"/>
		<edge from-layer="1645" from-port="0" to-layer="1646" to-port="1"/>
		<edge from-layer="1646" from-port="2" to-layer="1715" to-port="1"/>
		<edge from-layer="1647" from-port="0" to-layer="1649" to-port="1"/>
		<edge from-layer="1648" from-port="0" to-layer="1649" to-port="2"/>
		<edge from-layer="1649" from-port="3" to-layer="1653" to-port="0"/>
		<edge from-layer="1650" from-port="0" to-layer="1652" to-port="1"/>
		<edge from-layer="1651" from-port="0" to-layer="1652" to-port="2"/>
		<edge from-layer="1652" from-port="3" to-layer="1653" to-port="1"/>
		<edge from-layer="1653" from-port="2" to-layer="1657" to-port="0"/>
		<edge from-layer="1653" from-port="2" to-layer="1655" to-port="0"/>
		<edge from-layer="1654" from-port="0" to-layer="1655" to-port="1"/>
		<edge from-layer="1655" from-port="2" to-layer="1661" to-port="0"/>
		<edge from-layer="1656" from-port="0" to-layer="1658" to-port="0"/>
		<edge from-layer="1657" from-port="1" to-layer="1658" to-port="1"/>
		<edge from-layer="1658" from-port="2" to-layer="1660" to-port="0"/>
		<edge from-layer="1659" from-port="0" to-layer="1660" to-port="1"/>
		<edge from-layer="1660" from-port="2" to-layer="1661" to-port="1"/>
		<edge from-layer="1661" from-port="2" to-layer="1663" to-port="0"/>
		<edge from-layer="1662" from-port="0" to-layer="1663" to-port="1"/>
		<edge from-layer="1663" from-port="2" to-layer="1672" to-port="0"/>
		<edge from-layer="1663" from-port="2" to-layer="1665" to-port="0"/>
		<edge from-layer="1664" from-port="0" to-layer="1665" to-port="1"/>
		<edge from-layer="1665" from-port="2" to-layer="1676" to-port="0"/>
		<edge from-layer="1666" from-port="0" to-layer="1668" to-port="1"/>
		<edge from-layer="1667" from-port="0" to-layer="1668" to-port="2"/>
		<edge from-layer="1668" from-port="3" to-layer="1669" to-port="0"/>
		<edge from-layer="1669" from-port="1" to-layer="1671" to-port="0"/>
		<edge from-layer="1670" from-port="0" to-layer="1671" to-port="1"/>
		<edge from-layer="1671" from-port="2" to-layer="1673" to-port="0"/>
		<edge from-layer="1672" from-port="1" to-layer="1673" to-port="1"/>
		<edge from-layer="1673" from-port="2" to-layer="1675" to-port="0"/>
		<edge from-layer="1674" from-port="0" to-layer="1675" to-port="1"/>
		<edge from-layer="1675" from-port="2" to-layer="1676" to-port="1"/>
		<edge from-layer="1676" from-port="2" to-layer="1678" to-port="0"/>
		<edge from-layer="1677" from-port="0" to-layer="1678" to-port="1"/>
		<edge from-layer="1678" from-port="2" to-layer="1680" to-port="0"/>
		<edge from-layer="1679" from-port="0" to-layer="1680" to-port="1"/>
		<edge from-layer="1680" from-port="2" to-layer="1715" to-port="2"/>
		<edge from-layer="1681" from-port="0" to-layer="1683" to-port="1"/>
		<edge from-layer="1682" from-port="0" to-layer="1683" to-port="2"/>
		<edge from-layer="1683" from-port="3" to-layer="1687" to-port="0"/>
		<edge from-layer="1684" from-port="0" to-layer="1686" to-port="1"/>
		<edge from-layer="1685" from-port="0" to-layer="1686" to-port="2"/>
		<edge from-layer="1686" from-port="3" to-layer="1687" to-port="1"/>
		<edge from-layer="1687" from-port="2" to-layer="1689" to-port="0"/>
		<edge from-layer="1687" from-port="2" to-layer="1691" to-port="0"/>
		<edge from-layer="1688" from-port="0" to-layer="1689" to-port="1"/>
		<edge from-layer="1689" from-port="2" to-layer="1695" to-port="0"/>
		<edge from-layer="1690" from-port="0" to-layer="1692" to-port="0"/>
		<edge from-layer="1691" from-port="1" to-layer="1692" to-port="1"/>
		<edge from-layer="1692" from-port="2" to-layer="1694" to-port="0"/>
		<edge from-layer="1693" from-port="0" to-layer="1694" to-port="1"/>
		<edge from-layer="1694" from-port="2" to-layer="1695" to-port="1"/>
		<edge from-layer="1695" from-port="2" to-layer="1697" to-port="0"/>
		<edge from-layer="1696" from-port="0" to-layer="1697" to-port="1"/>
		<edge from-layer="1697" from-port="2" to-layer="1699" to-port="0"/>
		<edge from-layer="1697" from-port="2" to-layer="1706" to-port="0"/>
		<edge from-layer="1698" from-port="0" to-layer="1699" to-port="1"/>
		<edge from-layer="1699" from-port="2" to-layer="1710" to-port="0"/>
		<edge from-layer="1700" from-port="0" to-layer="1702" to-port="1"/>
		<edge from-layer="1701" from-port="0" to-layer="1702" to-port="2"/>
		<edge from-layer="1702" from-port="3" to-layer="1703" to-port="0"/>
		<edge from-layer="1703" from-port="1" to-layer="1705" to-port="0"/>
		<edge from-layer="1704" from-port="0" to-layer="1705" to-port="1"/>
		<edge from-layer="1705" from-port="2" to-layer="1707" to-port="0"/>
		<edge from-layer="1706" from-port="1" to-layer="1707" to-port="1"/>
		<edge from-layer="1707" from-port="2" to-layer="1709" to-port="0"/>
		<edge from-layer="1708" from-port="0" to-layer="1709" to-port="1"/>
		<edge from-layer="1709" from-port="2" to-layer="1710" to-port="1"/>
		<edge from-layer="1710" from-port="2" to-layer="1712" to-port="0"/>
		<edge from-layer="1711" from-port="0" to-layer="1712" to-port="1"/>
		<edge from-layer="1712" from-port="2" to-layer="1714" to-port="0"/>
		<edge from-layer="1713" from-port="0" to-layer="1714" to-port="1"/>
		<edge from-layer="1714" from-port="2" to-layer="1715" to-port="3"/>
		<edge from-layer="1715" from-port="4" to-layer="1716" to-port="4"/>
		<edge from-layer="1716" from-port="5" to-layer="1718" to-port="0"/>
		<edge from-layer="1717" from-port="0" to-layer="1718" to-port="1"/>
		<edge from-layer="1718" from-port="2" to-layer="1861" to-port="0"/>
		<edge from-layer="1719" from-port="0" to-layer="1721" to-port="1"/>
		<edge from-layer="1720" from-port="0" to-layer="1721" to-port="2"/>
		<edge from-layer="1721" from-port="3" to-layer="1722" to-port="0"/>
		<edge from-layer="1721" from-port="3" to-layer="1726" to-port="0"/>
		<edge from-layer="1722" from-port="1" to-layer="1725" to-port="0"/>
		<edge from-layer="1723" from-port="0" to-layer="1725" to-port="1"/>
		<edge from-layer="1724" from-port="0" to-layer="1725" to-port="2"/>
		<edge from-layer="1725" from-port="3" to-layer="1726" to-port="1"/>
		<edge from-layer="1726" from-port="2" to-layer="1728" to-port="0"/>
		<edge from-layer="1727" from-port="0" to-layer="1728" to-port="1"/>
		<edge from-layer="1728" from-port="2" to-layer="1729" to-port="0"/>
		<edge from-layer="1729" from-port="1" to-layer="1774" to-port="0"/>
		<edge from-layer="1730" from-port="0" to-layer="1732" to-port="1"/>
		<edge from-layer="1731" from-port="0" to-layer="1732" to-port="2"/>
		<edge from-layer="1732" from-port="3" to-layer="1737" to-port="0"/>
		<edge from-layer="1732" from-port="3" to-layer="1733" to-port="0"/>
		<edge from-layer="1733" from-port="1" to-layer="1736" to-port="0"/>
		<edge from-layer="1734" from-port="0" to-layer="1736" to-port="1"/>
		<edge from-layer="1735" from-port="0" to-layer="1736" to-port="2"/>
		<edge from-layer="1736" from-port="3" to-layer="1737" to-port="1"/>
		<edge from-layer="1737" from-port="2" to-layer="1739" to-port="0"/>
		<edge from-layer="1738" from-port="0" to-layer="1739" to-port="1"/>
		<edge from-layer="1739" from-port="2" to-layer="1740" to-port="0"/>
		<edge from-layer="1740" from-port="1" to-layer="1774" to-port="1"/>
		<edge from-layer="1741" from-port="0" to-layer="1743" to-port="1"/>
		<edge from-layer="1742" from-port="0" to-layer="1743" to-port="2"/>
		<edge from-layer="1743" from-port="3" to-layer="1744" to-port="0"/>
		<edge from-layer="1743" from-port="3" to-layer="1748" to-port="0"/>
		<edge from-layer="1744" from-port="1" to-layer="1747" to-port="0"/>
		<edge from-layer="1745" from-port="0" to-layer="1747" to-port="1"/>
		<edge from-layer="1746" from-port="0" to-layer="1747" to-port="2"/>
		<edge from-layer="1747" from-port="3" to-layer="1748" to-port="1"/>
		<edge from-layer="1748" from-port="2" to-layer="1750" to-port="0"/>
		<edge from-layer="1749" from-port="0" to-layer="1750" to-port="1"/>
		<edge from-layer="1750" from-port="2" to-layer="1751" to-port="0"/>
		<edge from-layer="1751" from-port="1" to-layer="1774" to-port="2"/>
		<edge from-layer="1752" from-port="0" to-layer="1754" to-port="1"/>
		<edge from-layer="1753" from-port="0" to-layer="1754" to-port="2"/>
		<edge from-layer="1754" from-port="3" to-layer="1759" to-port="0"/>
		<edge from-layer="1754" from-port="3" to-layer="1755" to-port="0"/>
		<edge from-layer="1755" from-port="1" to-layer="1758" to-port="0"/>
		<edge from-layer="1756" from-port="0" to-layer="1758" to-port="1"/>
		<edge from-layer="1757" from-port="0" to-layer="1758" to-port="2"/>
		<edge from-layer="1758" from-port="3" to-layer="1759" to-port="1"/>
		<edge from-layer="1759" from-port="2" to-layer="1761" to-port="0"/>
		<edge from-layer="1760" from-port="0" to-layer="1761" to-port="1"/>
		<edge from-layer="1761" from-port="2" to-layer="1762" to-port="0"/>
		<edge from-layer="1762" from-port="1" to-layer="1774" to-port="3"/>
		<edge from-layer="1763" from-port="0" to-layer="1765" to-port="1"/>
		<edge from-layer="1764" from-port="0" to-layer="1765" to-port="2"/>
		<edge from-layer="1765" from-port="3" to-layer="1766" to-port="0"/>
		<edge from-layer="1765" from-port="3" to-layer="1770" to-port="0"/>
		<edge from-layer="1766" from-port="1" to-layer="1769" to-port="0"/>
		<edge from-layer="1767" from-port="0" to-layer="1769" to-port="1"/>
		<edge from-layer="1768" from-port="0" to-layer="1769" to-port="2"/>
		<edge from-layer="1769" from-port="3" to-layer="1770" to-port="1"/>
		<edge from-layer="1770" from-port="2" to-layer="1772" to-port="0"/>
		<edge from-layer="1771" from-port="0" to-layer="1772" to-port="1"/>
		<edge from-layer="1772" from-port="2" to-layer="1773" to-port="0"/>
		<edge from-layer="1773" from-port="1" to-layer="1774" to-port="4"/>
		<edge from-layer="1774" from-port="5" to-layer="1851" to-port="0"/>
		<edge from-layer="1775" from-port="0" to-layer="1804" to-port="1"/>
		<edge from-layer="1775" from-port="0" to-layer="1776" to-port="1"/>
		<edge from-layer="1775" from-port="0" to-layer="1832" to-port="1"/>
		<edge from-layer="1775" from-port="0" to-layer="1818" to-port="1"/>
		<edge from-layer="1775" from-port="0" to-layer="1790" to-port="1"/>
		<edge from-layer="1776" from-port="2" to-layer="1778" to-port="0"/>
		<edge from-layer="1777" from-port="0" to-layer="1778" to-port="1"/>
		<edge from-layer="1778" from-port="2" to-layer="1781" to-port="0"/>
		<edge from-layer="1779" from-port="0" to-layer="1781" to-port="1"/>
		<edge from-layer="1780" from-port="0" to-layer="1781" to-port="2"/>
		<edge from-layer="1781" from-port="3" to-layer="1782" to-port="0"/>
		<edge from-layer="1781" from-port="3" to-layer="1786" to-port="0"/>
		<edge from-layer="1782" from-port="1" to-layer="1785" to-port="0"/>
		<edge from-layer="1783" from-port="0" to-layer="1785" to-port="1"/>
		<edge from-layer="1784" from-port="0" to-layer="1785" to-port="2"/>
		<edge from-layer="1785" from-port="3" to-layer="1786" to-port="1"/>
		<edge from-layer="1786" from-port="2" to-layer="1788" to-port="0"/>
		<edge from-layer="1787" from-port="0" to-layer="1788" to-port="1"/>
		<edge from-layer="1788" from-port="2" to-layer="1789" to-port="0"/>
		<edge from-layer="1789" from-port="1" to-layer="1846" to-port="0"/>
		<edge from-layer="1790" from-port="2" to-layer="1792" to-port="0"/>
		<edge from-layer="1791" from-port="0" to-layer="1792" to-port="1"/>
		<edge from-layer="1792" from-port="2" to-layer="1795" to-port="0"/>
		<edge from-layer="1793" from-port="0" to-layer="1795" to-port="1"/>
		<edge from-layer="1794" from-port="0" to-layer="1795" to-port="2"/>
		<edge from-layer="1795" from-port="3" to-layer="1796" to-port="0"/>
		<edge from-layer="1795" from-port="3" to-layer="1800" to-port="0"/>
		<edge from-layer="1796" from-port="1" to-layer="1799" to-port="0"/>
		<edge from-layer="1797" from-port="0" to-layer="1799" to-port="1"/>
		<edge from-layer="1798" from-port="0" to-layer="1799" to-port="2"/>
		<edge from-layer="1799" from-port="3" to-layer="1800" to-port="1"/>
		<edge from-layer="1800" from-port="2" to-layer="1802" to-port="0"/>
		<edge from-layer="1801" from-port="0" to-layer="1802" to-port="1"/>
		<edge from-layer="1802" from-port="2" to-layer="1803" to-port="0"/>
		<edge from-layer="1803" from-port="1" to-layer="1846" to-port="1"/>
		<edge from-layer="1804" from-port="2" to-layer="1806" to-port="0"/>
		<edge from-layer="1805" from-port="0" to-layer="1806" to-port="1"/>
		<edge from-layer="1806" from-port="2" to-layer="1809" to-port="0"/>
		<edge from-layer="1807" from-port="0" to-layer="1809" to-port="1"/>
		<edge from-layer="1808" from-port="0" to-layer="1809" to-port="2"/>
		<edge from-layer="1809" from-port="3" to-layer="1814" to-port="0"/>
		<edge from-layer="1809" from-port="3" to-layer="1810" to-port="0"/>
		<edge from-layer="1810" from-port="1" to-layer="1813" to-port="0"/>
		<edge from-layer="1811" from-port="0" to-layer="1813" to-port="1"/>
		<edge from-layer="1812" from-port="0" to-layer="1813" to-port="2"/>
		<edge from-layer="1813" from-port="3" to-layer="1814" to-port="1"/>
		<edge from-layer="1814" from-port="2" to-layer="1816" to-port="0"/>
		<edge from-layer="1815" from-port="0" to-layer="1816" to-port="1"/>
		<edge from-layer="1816" from-port="2" to-layer="1817" to-port="0"/>
		<edge from-layer="1817" from-port="1" to-layer="1846" to-port="2"/>
		<edge from-layer="1818" from-port="2" to-layer="1820" to-port="0"/>
		<edge from-layer="1819" from-port="0" to-layer="1820" to-port="1"/>
		<edge from-layer="1820" from-port="2" to-layer="1823" to-port="0"/>
		<edge from-layer="1821" from-port="0" to-layer="1823" to-port="1"/>
		<edge from-layer="1822" from-port="0" to-layer="1823" to-port="2"/>
		<edge from-layer="1823" from-port="3" to-layer="1824" to-port="0"/>
		<edge from-layer="1823" from-port="3" to-layer="1828" to-port="0"/>
		<edge from-layer="1824" from-port="1" to-layer="1827" to-port="0"/>
		<edge from-layer="1825" from-port="0" to-layer="1827" to-port="1"/>
		<edge from-layer="1826" from-port="0" to-layer="1827" to-port="2"/>
		<edge from-layer="1827" from-port="3" to-layer="1828" to-port="1"/>
		<edge from-layer="1828" from-port="2" to-layer="1830" to-port="0"/>
		<edge from-layer="1829" from-port="0" to-layer="1830" to-port="1"/>
		<edge from-layer="1830" from-port="2" to-layer="1831" to-port="0"/>
		<edge from-layer="1831" from-port="1" to-layer="1846" to-port="3"/>
		<edge from-layer="1832" from-port="2" to-layer="1834" to-port="0"/>
		<edge from-layer="1833" from-port="0" to-layer="1834" to-port="1"/>
		<edge from-layer="1834" from-port="2" to-layer="1837" to-port="0"/>
		<edge from-layer="1835" from-port="0" to-layer="1837" to-port="1"/>
		<edge from-layer="1836" from-port="0" to-layer="1837" to-port="2"/>
		<edge from-layer="1837" from-port="3" to-layer="1838" to-port="0"/>
		<edge from-layer="1837" from-port="3" to-layer="1842" to-port="0"/>
		<edge from-layer="1838" from-port="1" to-layer="1841" to-port="0"/>
		<edge from-layer="1839" from-port="0" to-layer="1841" to-port="1"/>
		<edge from-layer="1840" from-port="0" to-layer="1841" to-port="2"/>
		<edge from-layer="1841" from-port="3" to-layer="1842" to-port="1"/>
		<edge from-layer="1842" from-port="2" to-layer="1844" to-port="0"/>
		<edge from-layer="1843" from-port="0" to-layer="1844" to-port="1"/>
		<edge from-layer="1844" from-port="2" to-layer="1845" to-port="0"/>
		<edge from-layer="1845" from-port="1" to-layer="1846" to-port="4"/>
		<edge from-layer="1846" from-port="5" to-layer="1847" to-port="0"/>
		<edge from-layer="1846" from-port="5" to-layer="1850" to-port="0"/>
		<edge from-layer="1847" from-port="1" to-layer="1849" to-port="0"/>
		<edge from-layer="1848" from-port="0" to-layer="1849" to-port="1"/>
		<edge from-layer="1849" from-port="2" to-layer="1850" to-port="1"/>
		<edge from-layer="1850" from-port="2" to-layer="1851" to-port="1"/>
		<edge from-layer="1851" from-port="2" to-layer="1852" to-port="0"/>
		<edge from-layer="1851" from-port="2" to-layer="1887" to-port="0"/>
		<edge from-layer="1852" from-port="1" to-layer="1854" to-port="0"/>
		<edge from-layer="1852" from-port="1" to-layer="1874" to-port="1"/>
		<edge from-layer="1852" from-port="1" to-layer="1867" to-port="0"/>
		<edge from-layer="1853" from-port="0" to-layer="1854" to-port="1"/>
		<edge from-layer="1854" from-port="2" to-layer="1856" to-port="0"/>
		<edge from-layer="1855" from-port="0" to-layer="1856" to-port="1"/>
		<edge from-layer="1856" from-port="2" to-layer="1860" to-port="2"/>
		<edge from-layer="1856" from-port="2" to-layer="1858" to-port="0"/>
		<edge from-layer="1857" from-port="0" to-layer="1858" to-port="1"/>
		<edge from-layer="1858" from-port="2" to-layer="1860" to-port="0"/>
		<edge from-layer="1859" from-port="0" to-layer="1860" to-port="1"/>
		<edge from-layer="1860" from-port="3" to-layer="1861" to-port="1"/>
		<edge from-layer="1861" from-port="2" to-layer="1863" to-port="0"/>
		<edge from-layer="1862" from-port="0" to-layer="1863" to-port="1"/>
		<edge from-layer="1863" from-port="2" to-layer="1928" to-port="0"/>
		<edge from-layer="1863" from-port="2" to-layer="1885" to-port="0"/>
		<edge from-layer="1863" from-port="2" to-layer="1879" to-port="0"/>
		<edge from-layer="1864" from-port="0" to-layer="1868" to-port="0"/>
		<edge from-layer="1865" from-port="0" to-layer="1867" to-port="1"/>
		<edge from-layer="1866" from-port="0" to-layer="1867" to-port="2"/>
		<edge from-layer="1867" from-port="3" to-layer="1868" to-port="1"/>
		<edge from-layer="1868" from-port="2" to-layer="1869" to-port="0"/>
		<edge from-layer="1869" from-port="1" to-layer="1871" to-port="0"/>
		<edge from-layer="1870" from-port="0" to-layer="1871" to-port="1"/>
		<edge from-layer="1871" from-port="2" to-layer="1873" to-port="0"/>
		<edge from-layer="1872" from-port="0" to-layer="1873" to-port="1"/>
		<edge from-layer="1873" from-port="2" to-layer="1874" to-port="0"/>
		<edge from-layer="1874" from-port="2" to-layer="1876" to-port="0"/>
		<edge from-layer="1875" from-port="0" to-layer="1876" to-port="1"/>
		<edge from-layer="1876" from-port="2" to-layer="1877" to-port="0"/>
		<edge from-layer="1876" from-port="2" to-layer="1943" to-port="0"/>
		<edge from-layer="1877" from-port="1" to-layer="1882" to-port="0"/>
		<edge from-layer="1878" from-port="0" to-layer="1879" to-port="1"/>
		<edge from-layer="1879" from-port="2" to-layer="1881" to-port="0"/>
		<edge from-layer="1880" from-port="0" to-layer="1881" to-port="1"/>
		<edge from-layer="1881" from-port="2" to-layer="1882" to-port="1"/>
		<edge from-layer="1882" from-port="2" to-layer="1884" to-port="0"/>
		<edge from-layer="1883" from-port="0" to-layer="1884" to-port="1"/>
		<edge from-layer="1884" from-port="2" to-layer="1885" to-port="1"/>
		<edge from-layer="1885" from-port="2" to-layer="1890" to-port="0"/>
		<edge from-layer="1886" from-port="0" to-layer="1887" to-port="1"/>
		<edge from-layer="1887" from-port="2" to-layer="1889" to-port="0"/>
		<edge from-layer="1888" from-port="0" to-layer="1889" to-port="1"/>
		<edge from-layer="1889" from-port="2" to-layer="1890" to-port="1"/>
		<edge from-layer="1890" from-port="2" to-layer="1931" to-port="0"/>
		<edge from-layer="1890" from-port="2" to-layer="1894" to-port="0"/>
		<edge from-layer="1890" from-port="2" to-layer="1900" to-port="0"/>
		<edge from-layer="1891" from-port="0" to-layer="1894" to-port="1"/>
		<edge from-layer="1892" from-port="0" to-layer="1894" to-port="2"/>
		<edge from-layer="1893" from-port="0" to-layer="1894" to-port="3"/>
		<edge from-layer="1894" from-port="4" to-layer="1896" to-port="0"/>
		<edge from-layer="1895" from-port="0" to-layer="1896" to-port="1"/>
		<edge from-layer="1896" from-port="2" to-layer="1906" to-port="0"/>
		<edge from-layer="1897" from-port="0" to-layer="1900" to-port="1"/>
		<edge from-layer="1898" from-port="0" to-layer="1900" to-port="2"/>
		<edge from-layer="1899" from-port="0" to-layer="1900" to-port="3"/>
		<edge from-layer="1900" from-port="4" to-layer="1902" to-port="0"/>
		<edge from-layer="1901" from-port="0" to-layer="1902" to-port="1"/>
		<edge from-layer="1902" from-port="2" to-layer="1906" to-port="1"/>
		<edge from-layer="1902" from-port="2" to-layer="1914" to-port="0"/>
		<edge from-layer="1903" from-port="0" to-layer="1906" to-port="2"/>
		<edge from-layer="1904" from-port="0" to-layer="1906" to-port="3"/>
		<edge from-layer="1905" from-port="0" to-layer="1906" to-port="4"/>
		<edge from-layer="1906" from-port="5" to-layer="1910" to-port="0"/>
		<edge from-layer="1907" from-port="0" to-layer="1910" to-port="1"/>
		<edge from-layer="1908" from-port="0" to-layer="1910" to-port="2"/>
		<edge from-layer="1909" from-port="0" to-layer="1910" to-port="3"/>
		<edge from-layer="1910" from-port="4" to-layer="1912" to-port="0"/>
		<edge from-layer="1911" from-port="0" to-layer="1912" to-port="1"/>
		<edge from-layer="1912" from-port="2" to-layer="1915" to-port="0"/>
		<edge from-layer="1912" from-port="2" to-layer="1925" to-port="0"/>
		<edge from-layer="1913" from-port="0" to-layer="1914" to-port="1"/>
		<edge from-layer="1914" from-port="2" to-layer="1917" to-port="0"/>
		<edge from-layer="1915" from-port="1" to-layer="1917" to-port="1"/>
		<edge from-layer="1916" from-port="0" to-layer="1917" to-port="2"/>
		<edge from-layer="1917" from-port="3" to-layer="1923" to-port="0"/>
		<edge from-layer="1917" from-port="3" to-layer="1918" to-port="0"/>
		<edge from-layer="1918" from-port="1" to-layer="1920" to-port="0"/>
		<edge from-layer="1919" from-port="0" to-layer="1920" to-port="1"/>
		<edge from-layer="1920" from-port="2" to-layer="1922" to-port="0"/>
		<edge from-layer="1921" from-port="0" to-layer="1922" to-port="1"/>
		<edge from-layer="1922" from-port="2" to-layer="1923" to-port="1"/>
		<edge from-layer="1923" from-port="3" to-layer="1925" to-port="1"/>
		<edge from-layer="1924" from-port="0" to-layer="1925" to-port="2"/>
		<edge from-layer="1925" from-port="3" to-layer="1926" to-port="0"/>
		<edge from-layer="1925" from-port="3" to-layer="1941" to-port="0"/>
		<edge from-layer="1925" from-port="3" to-layer="1929" to-port="0"/>
		<edge from-layer="1926" from-port="1" to-layer="1928" to-port="1"/>
		<edge from-layer="1927" from-port="0" to-layer="1928" to-port="2"/>
		<edge from-layer="1928" from-port="3" to-layer="1940" to-port="0"/>
		<edge from-layer="1929" from-port="1" to-layer="1931" to-port="1"/>
		<edge from-layer="1930" from-port="0" to-layer="1931" to-port="2"/>
		<edge from-layer="1931" from-port="3" to-layer="1935" to-port="0"/>
		<edge from-layer="1932" from-port="0" to-layer="1935" to-port="1"/>
		<edge from-layer="1933" from-port="0" to-layer="1935" to-port="2"/>
		<edge from-layer="1934" from-port="0" to-layer="1935" to-port="3"/>
		<edge from-layer="1935" from-port="4" to-layer="1937" to-port="0"/>
		<edge from-layer="1936" from-port="0" to-layer="1937" to-port="1"/>
		<edge from-layer="1937" from-port="2" to-layer="1939" to-port="0"/>
		<edge from-layer="1938" from-port="0" to-layer="1939" to-port="1"/>
		<edge from-layer="1939" from-port="2" to-layer="1940" to-port="1"/>
		<edge from-layer="1940" from-port="2" to-layer="1947" to-port="0"/>
		<edge from-layer="1941" from-port="1" to-layer="1943" to-port="1"/>
		<edge from-layer="1942" from-port="0" to-layer="1943" to-port="2"/>
		<edge from-layer="1943" from-port="3" to-layer="1944" to-port="0"/>
		<edge from-layer="1944" from-port="1" to-layer="1946" to-port="0"/>
		<edge from-layer="1945" from-port="0" to-layer="1946" to-port="1"/>
		<edge from-layer="1946" from-port="2" to-layer="1947" to-port="1"/>
		<edge from-layer="1947" from-port="2" to-layer="1950" to-port="0"/>
		<edge from-layer="1947" from-port="2" to-layer="1958" to-port="0"/>
		<edge from-layer="1948" from-port="0" to-layer="1950" to-port="1"/>
		<edge from-layer="1949" from-port="0" to-layer="1950" to-port="2"/>
		<edge from-layer="1950" from-port="3" to-layer="1951" to-port="0"/>
		<edge from-layer="1951" from-port="1" to-layer="1953" to-port="0"/>
		<edge from-layer="1952" from-port="0" to-layer="1953" to-port="1"/>
		<edge from-layer="1953" from-port="2" to-layer="1954" to-port="0"/>
		<edge from-layer="1955" from-port="0" to-layer="1958" to-port="1"/>
		<edge from-layer="1956" from-port="0" to-layer="1958" to-port="2"/>
		<edge from-layer="1957" from-port="0" to-layer="1958" to-port="3"/>
		<edge from-layer="1958" from-port="4" to-layer="1959" to-port="0"/>
	</edges>
	<meta_data>
		<MO_version value="2022.1.0-6910-173f328c53d"/>
		<Runtime_version value="2022.1.0-6910-173f328c53d"/>
		<legacy_path value="False"/>
		<cli_parameters>
			<caffe_parser_path value="DIR"/>
			<compress_fp16 value="False"/>
			<data_type value="FP32"/>
			<disable_nhwc_to_nchw value="False"/>
			<disable_omitting_optional value="False"/>
			<disable_resnet_optimization value="False"/>
			<disable_weights_compression value="False"/>
			<enable_concat_optimization value="False"/>
			<enable_flattening_nested_params value="False"/>
			<enable_ssd_gluoncv value="False"/>
			<extensions value="DIR"/>
			<framework value="onnx"/>
			<freeze_placeholder_with_value value="{}"/>
			<generate_deprecated_IR_V7 value="False"/>
			<input value="image"/>
			<input_model value="DIR/model.onnx"/>
			<input_model_is_text value="False"/>
			<input_shape value="[1,3,416,416]"/>
			<k value="DIR/CustomLayersMapping.xml"/>
			<keep_shape_ops value="True"/>
			<layout value="image(nchw)"/>
			<layout_values value="{'image': {'source_layout': 'nchw', 'target_layout': None, 'is_input': True}}"/>
			<legacy_ir_generation value="False"/>
			<legacy_mxnet_model value="False"/>
			<log_level value="ERROR"/>
			<mean_scale_values value="{'image': {'mean': None, 'scale': array([255.])}}"/>
			<mean_values value="()"/>
			<model_name value="face-detection-0205"/>
			<output value="['boxes', 'labels']"/>
			<output_dir value="DIR"/>
			<placeholder_data_types value="{}"/>
			<placeholder_shapes value="{'image': (1, 3, 416, 416)}"/>
			<progress value="False"/>
			<remove_memory value="False"/>
			<remove_output_softmax value="False"/>
			<reverse_input_channels value="True"/>
			<save_params_from_nd value="False"/>
			<scale_values value="image[255.0]"/>
			<silent value="False"/>
			<source_layout value="()"/>
			<static_shape value="False"/>
			<stream_output value="False"/>
			<target_layout value="()"/>
			<transform value=""/>
			<use_legacy_frontend value="False"/>
			<use_new_frontend value="False"/>
			<unset unset_cli_parameters="batch, counts, disable_fusing, disable_gfusing, finegrain_fusing, input_checkpoint, input_meta_graph, input_proto, input_symbol, mean_file, mean_file_offsets, move_to_preprocess, nd_prefix_name, pretrained_model_name, saved_model_dir, saved_model_tags, scale, tensorboard_logdir, tensorflow_custom_layer_libraries, tensorflow_custom_operations_config_update, tensorflow_object_detection_api_pipeline_config, tensorflow_use_custom_operations_config, transformations_config"/>
		</cli_parameters>
	</meta_data>
</net>
